not_used/training_model.pth (torch, 191487 bytes, 12 tensors)

lstm.weight_ih_l0 f4 [256, 10]
0.056245126 -0.10335953 -0.07647604 -0.0664392 0.021164682 0.05617574 0.0005914575 0.117804505
0.096003994 0.05572644 -0.06598922 -0.083589405 -0.02374515 -0.002305234 0.0062057055 -0.011984211
-0.0590729 -0.0812425 0.0028348342 -0.10335569 0.053605553 -0.11499227 0.11184706 0.0961238
0.018080952 0.07528434 -0.08143486 0.09615105 0.02286984 0.055044293 0.09562977 0.02589148
-0.12307502 -0.037366018 0.113223135 0.1038227 -0.0031588993 -0.112437256 -0.11143668 0.07758695
-0.056568444 -0.11948471 0.011810839 0.004646793 -0.037686415 0.06731072 -0.03674946 -0.032328695
0.014333099 0.038685635 -0.06892101 -0.046159193 -0.100127906 0.05093144 0.030442163 0.059444413
0.092993975 0.01783752 0.09815508 0.11372861 -0.10600535 0.10981229 -0.06632136 0.043060884
-0.08798343 -0.10542299 -0.10878794 0.020362364 -0.04085712 -0.11332649 0.04419557 0.027847547
-0.022624284 -0.003758102 0.04042915 -0.083191946 0.12261021 -0.10432005 -0.077292025 0.008287415
0.1167666 0.009476674 0.07502158 -0.11996269 -0.08515146 0.080215104 0.09151045 -0.09229959
0.041870505 0.06656541 -0.068858445 -0.102467954 -0.056792155 0.11794737 -0.1034634 -0.038928773
-0.041500695 -0.05695186 0.020023838 -0.06830235 0.08524195 0.105463155 -0.059758678 -0.1029986
-0.1134218 -0.10620387 0.039304633 0.058040425 0.054861426 0.0076066107 0.09629817 0.09652308
-0.017404214 -0.107306 -0.014440864 0.016180277 0.05336997 -0.015119576 0.098228246 -0.10878864
0.03723888 0.06704609 -0.06513812 0.028677002 0.07568128 -0.033270556 -0.11529722 0.11438812
-0.0023312122 0.021576732 0.09624263 0.051750265 0.08891277 0.02487041 -0.08560088 -0.070539
-0.09964125 0.054578323 -0.08666289 -0.04547158 -0.05461873 -0.10578519 -0.0474696 0.10386336
-0.06378388 -0.02852855 -0.08593086 -0.09282866 -0.07584822 -0.043495968 0.007049578 -0.07983106
0.08534956 -0.06774691 0.038088538 0.007828807 -0.12143962 0.0922783 -0.08037488 -0.022950575
-0.10774087 -0.080037326 -0.06731124 -0.087085396 -0.012578101 -0.0070198337 -0.059309952 -0.043932006
-0.0902452 0.08733611 0.09147365 0.05219034 -0.012667194 -0.11299485 -0.124664426 0.066617906
-0.09014127 -0.077502966 0.004521087 0.02861987 0.067388766 -0.06578255 -0.0471853 -0.0044551194
-0.071898066 -0.0026072303 -0.0883548 0.083768696 0.07563838 -0.058367953 0.08500587 -0.012509665
0.07969266 -0.12453298 -0.05600658 -0.111902 0.081187114 -0.10591437 0.07355489 -0.081975356
-0.053072438 0.0599432 0.09017712 -0.07941653 0.03754241 0.03969983 0.10851435 -0.03965182
-0.038403332 0.009110302 -0.060610246 -0.09627938 -0.11647336 -0.103000894 -0.0007067037 -0.108733036
-0.09582284 -0.07470689 0.12415077 -0.059510067 0.03588814 0.034895875 0.035103723 0.016319811
-0.018759847 0.09648866 0.0984575 0.11226828 0.09299587 -0.123568594 -0.05246878 0.07317257
-0.04583673 0.054526195 -0.10054967 0.10194522 0.1037855 -0.10920927 -0.091059804 0.059832484
-0.08318601 0.06692521 -0.029068843 -0.07160036 0.11713867 0.027789531 0.029054254 0.06502111
0.035784274 -0.116852656 0.121135004 -0.043654416 0.11916092 -0.007929012 -0.04115881 0.06159797
00000000: 4a61 663d 29ae d3bd 789f 9cbd 4611 88bd
00000010: 8e61 ad3c 8818 663d 0a0c 1b3a 7d43 f13d
00000020: be9d c43d 6841 643d 5b25 87bd ec30 abbd
00000030: 3085 c2bc 6913 17bb 3b59 cb3b 6d59 44bc
00000040: 6df6 71bd 7862 a6bd a0c8 393b 26ac d3bd
00000050: 7f91 5b3d 1181 ebbd 1210 e53d 8edc c43d
00000060: 811e 943c ad2e 9a3d 52c7 a6bd d7ea c43d
00000070: 8859 bb3c 2076 613d 8ad9 c33d 5e1a d43c
00000080: c20e fcbd 1c0d 19bd 88e1 e73d ffa0 d43d
00000090: 8905 4fbb 8145 e6bd ea38 e4bd e8e5 9e3d
000000a0: 50b4 67bd 66b4 f4bd 4082 413c 2044 983b
000000b0: 125d 1abd 34da 893d 9a86 16bd 186b 04bd
000000c0: 60d5 6a3c d474 1e3d 7526 8dbd 6c11 3dbd
000000d0: dc0f cdbd 7c9d 503d d861 f93c fc7b 733d
000000e0: a073 be3d fe1f 923c 8805 c93d 8cea e83d
000000f0: 5519 d9bd 44e5 e03d 7ed3 87bd 9c60 303d
00000100: a830 b4bd 02e8 d7bd 36cc debd f9ce a63c
00000110: cc59 27bd b817 e8bd 6a06 353d 8a20 e43c
00000120: 9056 b9bc 7d4a 76bb 0999 253d 8a60 aabd
00000130: 101b fb3d c0a5 d5bd 484b 9ebd f0c7 073c
00000140: 5423 ef3d 0d44 1b3c eaa4 993d 00af f5bd
00000150: e363 aebd d147 a43d d569 bb3d 9107 bdbd
00000160: 6880 2b3d 7253 883d a805 8dbd b8da d1bd
00000170: e49e 68bd 648e f13d 9ee4 d3bd c773 1fbd
00000180: a2fc 29bd 5b46 69bd 0809 a43c 1ae2 8bbd
00000190: 5593 ae3d 11fd d73d 84c5 74bd eef0 d2bd
000001a0: b049 e8bd 6a81 d9bd e5fd 203d ccbb 6d3d
000001b0: 60b6 603d e040 f93b fa37 c53d e4ad c53d
000001c0: 4893 8ebc 40c3 dbbd 6099 6cbc 808c 843c
000001d0: 789a 5a3d 19b8 77bc e42b c93d 94cc debd
000001e0: cc87 183d 764f 893d 2267 85bd 08ec ea3c
000001f0: c9fe 9a3d b546 08bd f320 ecbd 5244 ea3d
00000200: 40c7 18bb b0c1 b03c db1a c53d 16f8 533d
00000210: e617 b63d 08bd cb3c 844f afbd c076 90bd
00000220: b610 ccbd 858d 5f3d 507c b1bd 6840 3abd
00000230: e4b7 5fbd e8a5 d8bd 7c6f 42bd 50b6 d43d
00000240: 1fa1 82bd b5b4 e9bc 85fc afbd f41c bebd
00000250: 5056 9bbd d428 32bd 2500 e73b 777e a3bd
00000260: c0cb ae3d e4be 8abd ba02 1c3d 6644 003c
00000270: 56b5 f8bd 68fc bc3d 969b a4bd d802 bcbc
00000280: 3fa7 dcbd 9cea a3bd 7ada 89bd d459 b2bd
00000290: 6114 4ebc a206 e6bb feee 72bd 0cf2 33bd
000002a0: 7ad2 b8bd 46dd b23d 8956 bb3d 8ac5 553d
000002b0: 108a 4fbc d869 e7bd 1050 ffbd f86e 883d
000002c0: fc9b b8bd e0b9 9ebd a025 943b 3874 ea3c
000002d0: 1f03 8a3d 00b9 86bd 6045 41bd 40fc 91bb
000002e0: 4b3f 93bd 11de 2abb 5df3 b4bd ec8e ab3d
000002f0: 4ce8 9a3d 3c13 6fbd 8f17 ae3d 57f5 4cbc
00000300: e835 a33d 260b ffbd 2867 65bd e02c e5bd
00000310: 6e45 a63d a2e9 d8bd f2a3 963d b2e2 a7bd
00000320: 7c62 59bd 0087 753d c8ae b83d 22a5 a2bd
00000330: 12c6 193d 4a9c 223d c63c de3d f269 22bd
00000340: d04c 1dbd 6043 153c 7342 78bd 202e c5bd
00000350: 9689 eebd 22f2 d2bd 1542 39ba 6daf debd
00000360: c43e c4bd edff 98bd c242 fe3d d4c0 73bd
00000370: 71ff 123d faee 0e3d ecc8 0f3d 20b1 853c
00000380: 40ae 99bc d99b c53d 16a4 c93d e9ec e53d
00000390: 9e74 be3d 8811 fdbd 81e9 56bd 80db 953d
000003a0: 4cbf 3bbd dc56 5f3d fcec cdbd a8c8 d03d
000003b0: 7e8d d43d 1ca9 dfbd 907d babd e812 753d
000003c0: 6d5d aabd 1610 893d c821 eebc 36a3 92bd
000003d0: 66e6 ef3d dfa6 e33c 3003 ee3c ca29 853d
000003e0: 8892 123d 7250 efbd a115 f83d f9ce 32bd
000003f0: a40a f43d b0e8 01bc 2496 28bd 274e 7c3d

lstm.weight_hh_l0 f4 [256, 64]
-0.017296843 0.09810217 -0.036346853 0.04331673 0.07697393 -0.0921191 0.05399006 -0.09179606
-0.068383366 0.03648825 -0.10297018 -0.04830727 -0.08500973 0.056406934 0.08846656 0.12381394
0.11483324 0.063210726 -0.11254609 -0.0091257645 -0.02096927 -0.08431648 -0.10249916 0.061612487
0.017906202 -0.017916882 -0.1179196 0.06725666 0.102386035 -0.019480139 -0.052145943 0.124669455
-0.09633031 -0.12166209 0.096839756 0.06432913 -0.089661464 0.053889334 0.00041491885 -0.07315746
-0.03862387 0.12424118 -0.0805445 0.078816816 0.08970642 0.057739716 0.038552463 -0.012097651
-0.0452101 -0.090547785 -0.05714 -0.06822693 -0.012449431 0.11993091 0.065541916 0.0039870385
-0.025975112 0.0013680347 0.017800145 -0.0977579 0.10317303 0.12033343 -0.046023536 0.0060681812
0.05270977 -0.10481132 0.058385 -0.115798 0.074607685 0.04778482 0.022018889 0.084059104
-0.06654145 -0.08525443 -0.10645352 0.009004819 -0.114727356 -0.02239918 0.035009503 -0.07650915
0.08950197 -0.056330193 -0.05807084 0.010523722 -0.0062176893 -0.12165025 0.04986842 0.08743483
0.09357829 0.117009476 0.08460129 -0.07373388 0.10901408 0.07480915 -0.03914409 0.053139906
-0.046069212 -0.07544161 0.009729861 0.0076955534 -0.10357268 -0.018035755 -0.011374328 -0.106129155
-0.077421956 -0.0361374 -0.12067544 -0.08664718 -0.03735525 0.0036973297 0.11836773 0.120757736
0.0038048974 -0.02366653 -0.12071474 -0.10205318 -0.11283799 -0.039338022 -0.122063085 -0.11010456
0.059976812 -0.08769955 -0.053685676 0.061821695 0.06877773 -0.07201796 0.019287797 -0.014298122
-0.02628437 -0.06636235 0.029909117 0.111183256 -0.067660555 0.09101415 0.034217283 -0.10665451
-0.010121619 0.05831206 -0.017796854 -0.022897482 0.064513355 -0.04034546 0.010376585 -0.0402461
-0.087720364 0.07243778 -0.038819402 0.076156884 -0.07737033 -0.0065360283 0.10106774 -0.014525205
-0.07636057 -0.11316033 0.09367007 -0.10220435 0.047527175 0.12423137 -0.08741765 0.023171738
0.008270973 0.063146904 -0.06350079 0.11889416 -0.0031401215 0.11318916 -0.028050529 -0.0630081
0.07692021 -0.09245987 -0.043749243 -0.044718906 0.11564766 0.06273973 -0.09141867 0.107603714
0.063552245 -0.1012333 0.014127559 -0.0744672 0.06260688 -0.021303385 -0.12331784 0.023172526
-0.007388658 -0.005444135 0.03405838 -0.093078986 -0.03086306 0.11807595 0.096984416 -0.07879853
0.035088822 -0.033255845 0.022354469 0.07893962 0.11189404 0.03581345 0.11325355 -0.08636537
-0.07392046 -0.04108098 -0.029866591 -0.045551434 -0.022064703 0.0037246759 0.06738204 -0.030427217
0.09446478 0.08068554 -0.039231747 0.06108071 -0.042947873 -0.035836548 0.050708935 -0.09245637
0.08668496 -0.018580094 0.022255186 0.061197713 -0.014410102 0.0042333766 -0.08339389 -0.11665936
0.09770009 0.012066034 0.06154202 0.033651352 0.014931178 0.036721244 0.02333203 -0.09921989
0.039841175 -0.08486149 0.047261834 0.024026686 -0.08609711 -0.012338942 -0.0816783 0.0012469948
-0.119579375 -0.12257694 0.065610185 -0.068795785 -0.019942598 0.093422696 -0.014299651 0.10437979
0.071846426 0.026701849 -0.06279321 -0.033402696 0.041910425 0.059083417 -0.12495296 0.03164065
00000000: 1cb2 8dbc cae9 c83d 70e0 14bd e26c 313d
00000010: 82a4 9d3d f0a8 bcbd ae24 5d3d 93ff bbbd
00000020: 940c 8cbd b474 153d 08e2 d2bd d8dd 45bd
00000030: 9519 aebd f50a 673d f52d b53d 2a92 fd3d
00000040: b12d eb3d a074 813d 907e e6bd 3b84 15bc
00000050: bfc7 abbc 1eae acbd 14eb d1bd 605d 7c3d
00000060: 07b0 923c 6dc6 92bc d57f f1bd dcbd 893d
00000070: c5af d13d d094 9fbc fc96 55bd b352 ff3d
00000080: d348 c5bd f929 f9bd ec53 c63d febe 833d
00000090: 6ea0 b7bd 10bb 5c3d 7789 d939 94d3 95bd
000000a0: 1034 1ebd 2972 fe3d 84f4 a4bd b66a a13d
000000b0: 00b8 b73d 7b80 6c3d 30e9 1d3d 3a35 46bc
000000c0: 3a2e 39bd 1e71 b9bd a20b 6abd 90ba 8bbd
000000d0: b3f8 4bbc 569e f53d d73a 863d b4a5 823b
000000e0: c2c9 d4bc a14f b33a 9cd1 913c 4b35 c8bd
000000f0: 624c d33d 6071 f63d 2d83 3cbd 98d7 c63b
00000100: 33e6 573d 51a7 d6bd 1c25 6f3d 8027 edbd
00000110: eacb 983d 04ba 433d f560 b43c 2e27 ac3d
00000120: e246 88bd e099 aebd 4e04 dabd f388 133c
00000130: 2df6 eabd 7c7e b7bc 2066 0f3d d4b0 9cbd
00000140: cf4c b73d 7dba 66bd b0db 6dbd b06b 2c3c
00000150: c2bd cbbb c423 f9bd d442 4c3d 0811 b33d
00000160: f9a5 bf3d aaa2 ef3d 7143 ad3d ca01 97bd
00000170: c642 df3d 8a35 993d 8e55 20bd 3ba9 593d
00000180: 12b3 3cbd 2181 9abd ff69 1f3c fb2a fc3b
00000190: ea1d d4bd b8bf 93bc 645b 3abc 3e5a d9bd
000001a0: 678f 9ebd cf04 14bd af24 f7bd 1474 b1bd
000001b0: d201 19bd e64e 723b c86a f23d d54f f73d
000001c0: 965b 793b 50e0 c1bc 4a39 f7bd 4201 d1bd
000001d0: 9b17 e7bd e820 21bd 36fc f9bd 807e e1bd
000001e0: 3faa 753d d29b b3bd 83e5 5bbd bf38 7d3d
000001f0: 57db 8c3d 277e 93bd 7101 9e3c ac42 6abc
00000200: 5252 d7bc fce8 87bd f703 f53c 0cb4 e33d
00000210: 9e91 8abd a065 ba3d 6c27 0c3d ae6d dabd
00000220: 26d5 25bc a0d8 6e3d b5ca 91bc 8093 bbbc
00000230: 941f 843d 4841 25bd 8d02 2a3c 18d9 24bd
00000240: bca6 b3bd 425a 943d 1801 1fbd 24f8 9b3d
00000250: 5674 9ebd 2e2c d6bb 9afc ce3d 20fb 6dbc
00000260: ee62 9cbd 9ac0 e7bd 18d6 bf3d 8450 d1bd
00000270: dbab 423d 046d fe3d 0608 b3bd a8d2 bd3c
00000280: fa82 073c 2a53 813d b40c 82bd c87e f33d
00000290: 7fca 4dbb b8cf e73d 39ca e5bc 640a 81bd
000002a0: 5888 9d3d 9a5b bdbd 6832 33bd 2c2b 37bd
000002b0: aed8 ec3d b07d 803d b639 bbbd 565f dc3d
000002c0: ae27 823d 6853 cfbd 4777 673c 4282 98bd
000002d0: 0938 803d 7084 aebc 108e fcbd 4fd4 bd3c
000002e0: 8e1c f2bb b764 b2bb cd80 0b3d 32a0 bebd
000002f0: 87d4 fcbc ced1 f13d c49f c63d 2061 a1bd
00000300: 4cb9 0f3d 4837 08bd b820 b73c 18ab a13d
00000310: b428 e53d 20b1 123d 7af1 e73d 54e0 b0bd
00000320: 9c63 97bd 8844 28bd c8aa f4bc 2494 3abd
00000330: 09c1 b4bc b119 743b 98ff 893d 8042 f9bc
00000340: c076 c13d 763e a53d 78b1 20bd c42f 7a3d
00000350: 1cea 2fbd 58c9 12bd 2cb4 4f3d c459 bdbd
00000360: e287 b13d 4835 98bc 8250 b63c 74aa 7a3d
00000370: 5918 6cbc 23b8 8a3b 6aca aabd 1aeb eebd
00000380: fc16 c83d 9db0 453c 7c13 7c3d 00d6 093d
00000390: e6a1 743c 0469 163d d022 bf3c cc33 cbbd
000003a0: 8030 233d dccb adbd a095 413d 9dd3 c43c
000003b0: ae53 b0bd 4629 4abc f446 a7bd 3472 a33a
000003c0: 08e6 f4bd 9e09 fbbd a25e 863d cee4 8cbd
000003d0: a95e a3bc 6654 bf3d 1549 6abc 12c5 d53d
000003e0: 3824 933d d6bd da3c ba99 80bd 44d1 08bd
000003f0: 44aa 2b3d 7401 723d 56e7 ffbd a099 013d

lstm.bias_ih_l0 f4 [256]
0.097919606 -0.055652045 0.09742963 0.044311386 -0.0360754 -0.05483353 0.0044618193 -0.12054651
0.08055803 0.026726948 0.060451597 -0.036408048 0.11180072 -0.08445123 -0.05537077 -0.05122907
0.07472654 -0.10392919 -0.07134393 0.10638735 -0.037519217 0.034846757 0.053267434 0.014112614
0.109852 -0.11642224 0.11405878 0.12152623 0.09581108 0.1246136 0.09293598 0.080069736
-0.051257554 0.0074141803 0.031788547 0.11484628 0.088126436 -0.050535187 0.02785988 0.09293255
0.08711347 -0.08943039 0.025282787 -0.08765376 -0.05877124 0.0886046 0.11415216 0.08030152
-0.032640576 0.05039877 -0.01697735 0.016803132 0.05608693 -0.060716372 0.026018022 -0.07690256
-0.051046826 0.028606256 0.009209029 0.027217977 0.030392198 -0.08585679 0.04901512 0.006241034
0.08823352 -0.065786645 -0.06358239 -0.038866423 -0.060756132 -0.11884061 -0.10230409 0.057273414
0.082798265 0.10404674 0.015405909 0.0480616 0.02793647 -0.10046857 -0.0020220838 0.072465174
-0.10381611 -0.0478922 0.020099172 -0.04007559 0.045835048 0.0266033 -0.0692676 0.05429803
0.043940865 0.08040767 0.048077397 0.0009361796 -0.03171454 -0.108664274 0.055705983 0.026970021
0.076799884 -0.011262354 0.10675436 0.09983171 0.07991521 0.07726295 0.11278063 0.041915182
0.011551872 0.046832845 0.11518847 0.047467355 -0.108366735 0.11393335 -0.018324403 -0.100307606
0.073289596 -0.10081783 0.057154913 -0.07715752 -0.089899294 0.015077621 -0.052233096 0.1022249
0.0932069 0.10415653 0.10111232 0.09189844 -0.11786794 0.06656346 -0.011212289 0.048880327
0.029343152 -0.10988659 0.014048517 0.038490128 -0.052986212 -0.0632888 -0.04143913 0.036422886
0.02803922 -0.09837018 -0.051776648 -0.06678065 -0.08023686 0.06474922 0.048412267 0.057963233
-0.09901655 0.046910625 -0.09738593 0.10465046 0.10749172 -0.0620662 -0.07101417 -0.026165731
0.12213855 0.012718911 -0.09477769 -0.07418783 0.026341997 0.094327025 -0.07317123 -0.04888451
-0.06504383 0.12402003 0.032860063 -0.11269615 0.0048057684 -0.047555655 -0.040273882 -0.104890816
-0.0078059435 0.037356284 -0.00080660963 0.023325032 0.0788907 0.11928349 -0.011399073 -0.08585636
-0.09285428 -0.091467015 0.017889181 -0.039540444 -0.1061224 0.06495227 -0.024454786 0.06646359
-0.060503583 0.10584709 -0.11712734 0.07828192 -0.0941072 -0.098665744 0.04922481 0.011565659
-0.09362347 0.046423513 -0.104025066 -0.057424758 -0.008372892 -0.105128266 0.036902796 -0.046553433
0.0709828 0.069768354 -0.040912885 -0.06314124 -0.067380525 0.021961011 0.12357328 0.021748329
0.09714684 -0.006411496 0.014194635 -0.075166374 0.10892845 -0.08672913 0.10665955 -0.10171839
0.004645063 -0.031008853 -0.038569257 -0.037008587 0.070530385 -0.106206164 -0.10646666 -0.049052637
0.10114483 0.0980359 -0.080433615 -0.12415186 0.06969375 -0.024663398 -0.09515515 -0.06402485
0.0019994925 0.0033351646 -0.053578373 0.10032188 0.09961558 0.091482505 -0.03571073 -0.063112095
-0.0097301975 0.1111605 -0.10355839 -0.063694805 -0.10290237 0.06897725 0.10106442 -0.09549014
0.044289712 0.11175665 0.07939108 -0.089137524 0.0323973 0.08826439 -0.10108683 0.070953704
00000000: 138a c83d 66f3 63bd 3089 c73d db7f 353d
00000010: ccc3 13bd 2099 60bd 7434 923b 17e1 f6bd
00000020: 9cfb a43d 79f2 da3c 189c 773d 9b20 15bd
00000030: c7f7 e43d c4f4 acbd 76cc 62bd 93d5 51bd
00000040: 3a0a 993d d4d8 d4bd c41c 92bd 9ce1 d93d
00000050: c0ad 19bd 79bb 0e3d f42e 5a3d 9838 673c
00000060: 16fa e03d c96e eebd a697 e93d bee2 f83d
00000070: 9938 c43d 6a35 ff3d 3855 be3d 9afb a33d
00000080: 71f3 51bd a7f2 f23b b534 023d 8734 eb3d
00000090: a27b b43d fcfd 4ebd 673a e43c 6c53 be3d
000000a0: 8c68 b23d 4827 b7bd d91d cf3c d183 b3bd
000000b0: 1dba 70bd 5476 b53d 9cc8 e93d 2075 a43d
000000c0: 20b2 05bd f16e 4e3d 1514 8bbc b9a6 893c
000000d0: 69bb 653d bbb1 78bd bf23 d53c 177f 9dbd
000000e0: 7a16 51bd ab57 ea3c 78e1 163c 3cf8 de3c
000000f0: 0ff9 f83c afd5 afbd 14c4 483d 9681 cc3b
00000100: c7b3 b43d 26bb 86bd 7c37 82bd 6632 1fbd
00000110: 6cdb 78bd b562 f3bd cf84 d1bd 8797 6a3d
00000120: 2392 a93d 7516 d53d 1169 7c3c 3edc 443d
00000130: 06db e43c 77c2 cdbd f084 04bb 9f68 943d
00000140: 8a9d d4bd 9d2a 44bd 05a7 a43c 4d26 24bd
00000150: 88bd 3b3d 2aef d93c 2cdc 8dbd 9c67 5e3d
00000160: 56fb 333d c7ac a43d ceec 443d f369 753a
00000170: 1be7 01bd 608b debd f52b 643d 3cf0 dc3c
00000180: 4249 9d3d bd85 38bc 08a2 da3d 9174 cc3d
00000190: 96aa a33d 0a3c 9e3d 88f9 e63d 41af 2b3d
000001a0: 1044 3d3c ccd3 3f3d efe7 eb3d 216d 423d
000001b0: 61ef ddbd e355 e93d 0f1d 96bc 136e cdbd
000001c0: db18 963d 9479 cebd 451b 6a3d c304 9ebd
000001d0: 1f1d b8bd 2008 773c 5ff2 55bd 4a5b d13d
000001e0: 42e3 be3d 0550 d53d fa13 cf3d 4035 bc3d
000001f0: bf64 f1bd 6c52 883d c0b3 37bc bd36 483d
00000200: 0d61 f03c 380c e1bd c02b 663c d3a7 1d3d
00000210: 1208 59bd 8f9d 81bd 14bc 29bd 2a30 153d
00000220: 82b2 e53c 4e76 c9bd c013 54bd 4bc4 88bd
00000230: 3953 a4bd 3d9b 843d f14b 463d db6a 6d3d
00000240: 30c9 cabd 5b25 403d 4672 c7bd fb52 d63d
00000250: 9e24 dc3d 2139 7ebd e16f 91bd 8459 d6bc
00000260: c723 fa3d fb62 503c ce1a c2bd caef 97bd
00000270: 2ccb d73c 872e c13d ccda 95bd 203b 48bd
00000280: b335 85bd 37fe fd3d 4698 063d 3dcd e6bd
00000290: b579 9d3b b8c9 42bd 3af6 24bd ffd0 d6bd
000002a0: 00c9 ffbb e702 193d a872 53ba 2314 bf3c
000002b0: 7391 a13d e74a f43d 2dc3 3abc 76d5 afbd
000002c0: 622a bebd 0f53 bbbd 558c 923c 29f5 21bd
000002d0: b356 d9bd b205 853d 6755 c8bc 101e 883d
000002e0: 9bd2 77bd 5cc6 d83d 75e0 efbd 4552 a03d
000002f0: 47bb c0bd 4411 cabd f49f 493d e47d 3d3c
00000300: a9bd bfbd 9526 3e3d 180b d5bd 3936 6bbd
00000310: 742e 09bc 7d4d d7bd 6327 173d d0ae 3ebd
00000320: 6e5f 913d b6e2 8e3d 4594 27bd 3250 81bd
00000330: cdfe 89bd 94e7 b33c fd13 fd3d 8d29 b23c
00000340: ecf4 c63d 8717 d2bb 9d90 683c d4f0 99bd
00000350: e115 df3d 0b9f b1bd 5270 da3d bb51 d0bd
00000360: 9d35 983b 4706 febc ccfa 1dbd 5196 17bd
00000370: 3c72 903d 9e82 d9bd 310b dabd 6beb 48bd
00000380: 0525 cf3d 0cc7 c83d 61ba a4bd 5543 febd
00000390: 99bb 8e3d e50a cabc b4e0 c2bd 761f 83bd
000003a0: eb09 033b c792 5a3b ff74 5bbd 8f75 cd3d
000003b0: 4103 cc3d 2e5b bb3d 6a45 12bd ea40 81bd
000003c0: 686b 1fbc 1ea8 e33d 6c16 d4bd 6c72 82bd
000003d0: 7abe d2bd f243 8d3d ddfa ce3d 5690 c3bd
000003e0: 2169 353d ace0 e43d ca97 a23d bc8d b6bd
000003f0: 08b3 043d f6c3 b43d 9d06 cfbd 2d50 913d

lstm.bias_hh_l0 f4 [256]
-0.10552465 -0.070395485 0.055333655 0.11737101 -0.035893902 0.11720591 -0.117826216 -0.06269119
0.08954275 -0.009913468 -0.086851016 0.04285114 -0.002388165 -0.063081846 -0.01291688 -0.013067297
-0.08017944 -0.014721128 0.09693609 -0.06230654 0.079290606 0.106770225 -0.032183826 0.014822535
-0.0891812 0.058793228 -0.100850716 0.12289937 -0.06602893 0.08155613 0.09980549 -0.06247123
-0.07860236 -0.09698274 -0.07985228 -0.018491166 0.0011824503 -0.0030124504 -0.039407734 -0.02543303
0.021864925 0.08661713 -0.11644716 0.090848036 0.049566012 0.0241272 0.04637743 0.095325604
0.07191584 0.0038917095 -0.11483882 0.11431694 0.07805502 -0.008958448 -0.043638773 0.10071359
0.063502535 0.07402964 0.06467859 -0.031134628 -0.042055454 0.025680436 0.054896608 0.102267794
0.060016785 -0.11981797 -0.04678521 0.024558328 0.11174916 -0.07276631 -0.054703724 0.11585174
-0.08069383 -0.01611383 0.05166348 -0.11113424 -0.058523346 -0.06411528 -0.021127328 -0.068171225
0.11617848 0.021607118 0.02039046 0.032334846 -0.08825782 0.09893661 -0.055576622 0.06806488
-0.10882499 -0.049500845 0.100120835 0.092892185 0.024482263 -0.07673921 -0.11648401 -0.045153197
-0.016212543 -0.07458672 0.08072372 -0.0011686987 0.06456445 0.014806017 0.12065405 -0.10804112
-0.009649336 -0.1139957 0.020921644 -0.039014544 -0.07925104 0.099706374 -0.047708537 0.031779986
0.014950711 0.05725466 -0.0050910525 0.017463876 0.11852459 -0.027342862 0.09029259 -0.07319696
0.0655459 0.07226058 -0.013433376 0.116916746 0.10863588 -0.122004986 0.033117875 0.06042986
-0.123562954 0.11559825 -0.042128917 0.04268646 -0.045018934 -0.07224845 -0.10381567 0.11998543
0.0154684475 -0.022122223 -0.045548618 -0.07998977 0.006260864 -0.058693543 0.073808685 -0.05725256
-0.10136412 0.11617408 0.024005603 -0.11496056 0.019985447 -0.045338053 -0.020579983 -0.05269602
-0.09683248 -0.123484306 0.04050932 0.074204504 0.11340324 0.124013655 -0.015974019 -0.058743328
-0.057997305 -0.030020561 -0.030624252 -0.08892586 -0.050512247 0.034179837 0.078710735 0.09806637
0.096099794 0.0631945 -0.015921587 0.07170965 0.10203969 0.037295803 0.078504436 -0.073950335
-0.11931284 -0.08696293 0.124013565 0.09827645 -0.08782964 -0.02085934 0.03796296 0.056654762
0.0915281 -0.0787147 0.107449986 0.019044578 0.028031712 -0.1210513 0.06850168 -0.12064785
-0.11980837 -0.03727175 -0.0588922 -0.06390934 0.016659647 -0.05188427 0.07017772 0.058860436
0.0317397 -0.10396911 0.0079967845 -0.12092362 -0.020399608 0.04579187 -0.015519725 -0.016316643
0.008617185 0.08984762 0.07820724 0.054434825 0.10430258 0.0035544352 -0.091128215 0.057729244
0.026137918 0.0949148 -0.08561635 0.08213353 0.069859326 -0.11189754 0.05717021 -0.1209194
-0.0063352766 -0.029195044 -0.05399039 0.058084 0.12331454 -0.047956124 -0.12275627 -0.093929425
0.042909414 0.05496998 -0.019236222 0.12322942 -0.028606102 -0.031890616 0.10388442 -0.07242598
0.093403116 0.012087731 -0.017396893 0.029264802 0.10696809 -0.010282159 -0.11337861 -0.07224043
-0.0031611135 0.117705315 -0.0089822775 -0.02288596 -0.0969833 -0.05587034 -0.05482952 0.012682272
00000000: 4f1d d8bd 822b 90bd 8ba5 623d 3660 f03d
00000010: 7c05 13bd a709 f03d df4e f1bd 3d64 80bd
00000020: 3062 b73d 196c 22bc f2de b1bd ad84 2f3d
00000030: c382 1cbb 0e31 81bd 52a1 53bc 3718 56bc
00000040: 1e35 a4bd e330 71bc 6e86 c63d 2435 7fbd
00000050: 1d63 a23d 59aa da3d 30d3 03bd 38da 723c
00000060: a2a4 b6bd 2bd1 703d d28a cebd aab2 fb3d
00000070: 2d3a 87bd e606 a73d d266 cc3d d5e1 7fbd
00000080: 46fa a0bd e39e c6bd 9889 a3bd c97a 97bc
00000090: 73fc 9a3a 886c 45bb 016a 21bd ee58 d0bc
000000a0: 121e b33c 5264 b13d d97b eebd 890e ba3d
000000b0: bb05 4b3d 68a6 c53c 43f6 3d3d 123a c33d
000000c0: 9d48 933d 0d0c 7f3b 9e30 ebbd 001f ea3d
000000d0: 4fdb 9f3d 74c6 12bc 92be 32bd ed42 ce3d
000000e0: 9e0d 823d da9c 973d 3576 843d 0c0e ffbc
000000f0: 5742 2cbd c75f d23c 44db 603d c771 d13d
00000100: 29d4 753d 2063 f5bd d9a1 3fbd 8c2e c93c
00000110: bedc e43d 8106 95bd 0311 60bd ad43 ed3d
00000120: cf42 a5bd 2701 84bc 169d 533d 599a e3bd
00000130: 2db6 6fbd df4e 83bd 3813 adbc 5b9d 8bbd
00000140: fcee ed3d 6901 b13c e509 a73c 8b71 043d
00000150: 84c0 b4bd 479f ca3d 50a4 63bd 9a65 8b3d
00000160: a3df debd 66c1 4abd 270c cd3d 423e be3d
00000170: 078f c83c 7229 9dbd 2b8f eebd 8ff2 38bd
00000180: 2bd0 84bc ecc0 98bd 7a52 a53d 052f 99ba
00000190: 5e3a 843d f094 723c 7819 f73d aa44 ddbd
000001a0: 4018 1ebc 9476 e9bd de63 ab3c b7cd 1fbd
000001b0: 5f4e a2bd db32 cc3d 076a 43bd bb2b 023d
000001c0: d4f3 743c dd83 6a3d d8d2 a6bb 6710 8f3c
000001d0: 05bd f23d 23fe dfbc 52eb b83d 4ae8 95bd
000001e0: ee3c 863d 5bfd 933d aa17 5cbc 0c72 ef3d
000001f0: 7d7c de3d c0dd f9bd 9ca6 073d 4d85 773d
00000200: 930e fdbd c6be ec3d 5f8f 2cbd ffd7 2e3d
00000210: c665 38bd fff6 93bd 4f9d d4bd ecba f53d
00000220: 5f6f 7d3c aa39 b5bc 3091 3abd add1 a3bd
00000230: ef27 cd3b a468 70bd 0229 973d a981 6abd
00000240: fe97 cfbd adec ed3d 66a7 c43c 7170 ebbd
00000250: 85b8 a33c 65b4 39bd 5a97 a8bc c8d7 57bd
00000260: 1b50 c6bd 57e5 fcbd 1aed 253d 88f8 973d
00000270: f53f e83d dffa fd3d f2db 82bc d89c 70bd
00000280: 958e 6dbd aeed f5bc b6df fabc c31e b6bd
00000290: eee5 4ebd 2800 0c3d 1833 a13d 05d7 c83d
000002a0: f8cf c43d 1e6c 813d fd6d 82bc 82dc 923d
000002b0: 2ffa d03d 7cc3 183d efc6 a03d 4673 97bd
000002c0: 4a5a f4bd 9f19 b2bd d3fa fd3d 2a45 c93d
000002d0: 07e0 b3bd 35e1 aabc 0c7f 1b3d d30e 683d
000002e0: 1673 bb3d 2c35 a1bd bd0e dc3d 6003 9c3c
000002f0: c3a2 e53c bee9 f7bd 9c4a 8c3d 3816 f7bd
00000300: 175e f5bd 43aa 18bd f338 71bd e6e2 82bd
00000310: d079 883c 9a84 54bd 56b9 8f3d a417 713d
00000320: 7d01 023d c2ed d4bd f204 033c cea6 f7bd
00000330: 141d a7bc 4290 3b3d 7246 7ebc 7baa 85bc
00000340: 182f 0d3c 0702 b83d 1e2b a03d 0df7 5e3d
00000350: 979c d53d 87f1 683b 6ea1 babd 8075 6c3d
00000360: 301f d63c b162 c23d a057 afbd a035 a83d
00000370: 6812 8f3d 8a2a e5bd 4f2b 6a3d 97a4 f7bd
00000380: 2798 cfbb 722a efbc 0725 5dbd 7de9 6d3d
00000390: 558c fc3d a46d 44bd a467 fbbd 125e c0bd
000003a0: c8c1 2f3d 3428 613d 4895 9dbc b55f fc3d
000003b0: 5857 eabc bc9f 02bd 5bc1 d43d 1254 94bd
000003c0: 224a bf3d 9e0b 463c ee83 8ebc bdbc ef3c
000003d0: 1612 db3d 8076 28bc 0b33 e8bd caf2 93bd
000003e0: af2a 4fbb 7c0f f13d 672a 13bc 567b bbbc
000003f0: 2e9f c6bd 4cd8 64bd eb94 60bd 4ec9 4f3c

lstm.weight_ih_l0_reverse f4 [256, 10]
-0.032434843 -0.11330527 -0.024991572 0.11209065 0.03026325 0.119507626 -0.02212062 -0.081873015
0.06938334 0.03223288 -0.071942426 -0.038802676 -0.11612646 0.066886604 0.088856936 0.10203409
0.040483713 0.0667837 -0.04538858 0.0044232905 -0.009495313 0.098018326 0.12391269 0.11046298
-0.07617259 0.104939535 0.014395305 -0.041788086 0.122620985 -0.083841756 -0.08505289 -0.009035728
0.06148912 -0.09774138 0.059655473 -0.042755242 -0.04329376 -0.016146038 0.08301686 0.11175907
-0.0822108 -0.122544326 -0.10556278 -0.1215819 -0.016884724 -0.09593859 0.105453655 -0.08652499
0.023845851 0.02711904 -0.07738102 0.074624486 0.12093803 0.01820916 -0.023885606 0.10867202
-0.10489584 -0.003089893 -0.088566765 -0.005372852 0.036386006 0.090866655 0.08803533 -0.118512854
0.11635525 -0.11826596 0.051777553 0.073886335 0.012092784 0.123705834 0.016545665 -0.09885075
-0.0435033 0.12298243 0.0010328754 0.08733426 0.04755215 -0.010526764 0.058963284 0.07647084
-0.115923606 0.05048162 -0.12148546 -0.02018641 -0.060425002 -0.08666264 -0.07326623 -0.006940806
0.09050678 0.015047371 0.056646787 0.08837051 -0.074298784 -0.11753796 0.100855954 -0.04886277
0.041981135 -0.071754664 -0.014808625 -0.061756656 -0.029004911 0.05417082 0.02258788 -0.0061867386
-0.02035706 -0.079732984 -0.013707212 -0.03950718 0.11027169 -0.009545386 -0.03427404 0.05364577
0.03349264 0.06781179 0.032552946 -0.04278814 0.0016731005 0.03171008 0.11167425 0.09661795
-0.06484965 0.088083275 0.104461 -0.09404749 0.00037594684 0.02252883 0.044151787 0.10793021
0.06731029 -0.11215831 0.048047014 0.04944673 -0.08156927 0.0099449605 -0.03813927 0.058137234
-0.06389509 0.049093258 -0.0859288 0.054909512 0.10883904 0.09094556 -0.008743823 -0.052477315
-0.08454524 0.09315568 0.019655213 0.0007082623 -0.015237644 0.11137548 0.019235417 0.07477864
-0.038898245 0.108459875 0.096866384 -0.07782261 -0.09991409 0.054479603 -0.11348528 -0.1120825
-0.08857088 -0.0847349 0.0062048286 0.108862 -0.074659765 -0.09027772 -0.09091525 -0.020200713
-0.021702185 0.085423306 0.012470617 0.105370186 -0.025462463 0.05448012 -0.036125258 -0.01418806
0.005348539 -0.07123566 -0.08303328 -0.1118978 -0.057973675 0.08302294 0.112772554 -0.0027077699
0.11028385 -0.09501101 -0.122103676 -0.084861115 -0.018671155 -0.10672335 0.057661455 0.085317984
0.08303009 -0.06439559 0.12387143 0.08808218 0.04197696 -0.0050331755 -0.0065390915 0.06305815
-0.11575992 -0.09615306 -0.022431359 0.07430068 -0.083185546 -0.022330226 -0.07067836 -0.07744097
0.037950277 0.00735949 -0.008778939 0.02727423 0.055924743 -0.11654565 0.0043555717 0.059879884
-0.08918771 0.06828864 -0.03030765 0.06818971 -0.088532254 0.057075977 -0.10794343 0.04987271
-0.0680086 -0.08792426 -0.080168426 0.03614433 -0.015386298 -0.120890155 0.11670087 -0.044263184
-0.03356704 0.039114 0.078130946 -0.088754706 0.043123275 0.07803852 -0.07213436 -0.100391164
0.071461186 -0.024924465 -0.07891689 -0.0667606 0.047886644 -0.068037 0.12416667 -0.1235175
-0.008109 0.097065434 -0.089905165 -0.037338607 -0.006989196 -0.113540486 -0.048111677 0.122924104
00000000: 66da 04bd 980c e8bd 20bb ccbc c88f e53d
00000010: a3ea f73c 6ac0 f43d 4d36 b5bc 0aad a7bd
00000020: da18 8e3d a006 043d 8d56 93bd 8eef 1ebd
00000030: b6d3 edbd d8fb 883d a0fa b53d 40f7 d03d
00000040: 40d2 253d e4c5 883d 60e9 39bd 40f1 903b
00000050: 3b92 1bbc d5bd c83d f0c5 fd3d 6a3a e23d
00000060: 6000 9cbd 8aea d63d 49da 6b3c fc29 2bbd
00000070: b620 fb3d 3ab5 abbd 3630 aebd 970a 14bc
00000080: 04dc 7b3d a22c c8bd 4c59 743d 1f20 2fbd
00000090: cc54 31bd b244 84bc be04 aa3d f0e1 e43d
000000a0: 235e a8bd 85f8 fabd 4c31 d8bd eeff f8bd
000000b0: d551 8abc 747b c4bd 16f8 d73d 0434 b1bd
000000c0: 6058 c33c c028 de3c f179 9ebd b9d4 983d
000000d0: 5cae f73d 602b 953c bfab c3bc 708f de3d
000000e0: a1d3 d6bd cd7f 4abb 7e62 b5bd c00e b0bb
000000f0: 7e09 153d 4c18 ba3d de4b b43d deb6 f2bd
00000100: a94b ee3d 6c35 f2bd b314 543d b851 973d
00000110: d020 463c 7c59 fd3d c68a 873c 4372 cabd
00000120: 8430 32bd 36de fb3d 8c61 873a 4edc b23d
00000130: 0bc6 423d 7378 2cbc 7c83 713d be9c 9c3d
00000140: 5b69 edbd d1c5 4e3d 5ecd f8bd f85d a5bc
00000150: 3580 77bd 2f7c b1bd 9b0c 96bd b36f e3bb
00000160: 9e5b b93d 4089 763c 7606 683d 99fb b43d
00000170: f629 98bd beb7 f0bd 918d ce3d 5424 48bd
00000180: 69f4 2b3d 1cf4 92bd e09f 72bc 8cf4 7cbd
00000190: b59b edbc 39e2 5d3d 380a b93c 20ba cabb
000001a0: d9c3 a6bc 0c4b a3bd 3794 60bc 48d2 21bd
000001b0: 20d6 e13d 4064 1cbc f062 0cbd abbb 5b3d
000001c0: 942f 093d e8e0 8a3d 3d56 053d 9e42 2fbd
000001d0: f04b db3a 6ee2 013d 78b5 e43d a2df c53d
000001e0: e5cf 84bd 0165 b43d a6ef d53d f89b c0bd
000001f0: bb1a c539 628e b83c 81d8 343d 840a dd3d
00000200: fad9 893d 42b3 e5bd f2cc 443d a888 4a3d
00000210: ca0d a7bd 30f0 223c ec37 1cbd 4f21 6e3d
00000220: 6edb 82bd 0316 493d 70fb afbd cce8 603d
00000230: 01e7 de3d aa41 ba3d 4042 0fbc 74f2 56bd
00000240: 0e26 adbd 68c8 be3d f803 a13c aeaa 393a
00000250: 50a7 79bc d418 e43d 9893 9d3c 8b25 993d
00000260: c453 1fbd 3620 de3d e261 c63d 7661 9fbd
00000270: c29f ccbd 0126 5f3d f86a e8bd 828b e5bd
00000280: a664 b5bd 7e89 adbd e051 cb3b 0af3 de3d
00000290: 38e7 98bd 86e3 b8bd c631 babd f77b a5bc
000002a0: c8c8 b1bc 6af2 ae3d 8f51 4c3c 53cc d73d
000002b0: a896 d0bc 8c26 5f3d 14f8 13bd 0975 68bc
000002c0: cc42 af3b 00e4 91bd 5a0d aabd ac2a e5bd
000002d0: ce75 6dbd ee07 aa3d 4cf5 e63d d774 31bb
000002e0: 80dc e13d 2295 c2bd 7e11 fabd aacb adbd
000002f0: 40f4 98bc c691 dabd 6b2e 6c3d 32bb ae3d
00000300: ae0b aa3d d6e1 83bd 4eb0 fd3d 6e64 b43d
00000310: 08f0 2b3d 56ed a4bb e045 d6bb a224 813d
00000320: 8913 edbd e5eb c4bd f8c1 b7bc f42a 983d
00000330: 2f5d aabd e1ed b6bc d1bf 90bd 5f99 9ebd
00000340: c071 1b3d e027 f13b 8ad5 0fbc 356e df3c
00000350: 5811 653d 7caf eebd 2fb9 8e3b 9c44 753d
00000360: 0ca8 b6bd eada 8b3d c047 f8bc 0ca7 8b3d
00000370: 6650 b5bd 80c8 693d 7211 ddbd 5447 4c3d
00000380: 1848 8bbd a211 b4bd 582f a4bd 140c 143d
00000390: d016 7cbc 4295 f7bd de00 ef3d 504d 35bd
000003a0: 987d 09bd 0036 203d 1e03 a03d 07c5 b5bd
000003b0: 08a2 303d a9d2 9f3d 2ebb 93bd e299 cdbd
000003c0: 3e5a 923d 642e ccbc 2e9f a1bd c8b9 88bd
000003d0: c924 443d fc56 8bbd 184b fe3d bef6 fcbd
000003e0: 9cdb 04bc 3eca c63d 3320 b8bd 5ef0 18bd
000003f0: a005 e5bb ea87 e8bd c010 45bd a2bf fb3d

lstm.weight_hh_l0_reverse f4 [256, 64]
-0.11536643 0.049334556 0.04818821 0.11526863 -0.0015767914 0.069538906 -0.075772315 -0.058616802
0.0350042 -0.0756077 -0.07479763 0.044778153 0.058632284 0.052183446 0.045297775 0.05125636
0.08470857 -0.01332885 -0.12099548 0.05838634 -0.027493402 0.10385659 0.033430576 -0.113085255
-0.089480236 -0.08025549 -0.07547094 0.12495273 0.078482 0.020344272 -0.09779909 0.06793429
0.06920698 0.04700023 -0.10168439 -0.01161339 0.06986529 0.055456907 -0.0089356685 0.04574676
0.074717715 -0.113774404 -0.04613702 -0.10440242 0.077902496 0.035173323 -0.004816399 -0.05817452
0.050431296 -0.007515518 -0.055486932 0.0030509648 -0.107593775 0.03665466 0.0166502 -0.06340973
-0.06866549 -0.07329981 0.029235221 0.09473659 -0.122394875 -0.017475996 -0.110474974 0.079682305
0.008748975 0.070624694 0.037474237 -0.09741053 0.06940518 0.11008094 0.080459446 -0.04877776
0.11409603 -0.045364663 0.021772346 0.014822329 0.05356352 -0.07122244 0.024140455 0.0912548
-0.06083992 0.0827972 -0.09538092 0.057294756 -0.124915525 0.021109253 -0.072540134 0.015465892
-0.08581056 -0.038408205 0.08956109 0.11485988 -0.04054551 -0.09697774 -0.052043796 -0.0029798101
0.04397486 0.11729123 0.089238584 0.008137469 -0.074934274 -0.10966399 -0.10163298 0.10338579
-0.06070228 -0.015808105 0.1192368 0.014233498 0.06984098 0.04489883 0.043417335 -0.0476612
-0.05038677 0.09672269 -0.012883619 0.07581684 -0.067037 0.040332615 0.11104655 -0.023691386
-0.1222575 0.037753195 -0.10301812 -0.08276461 0.06687768 -0.09740573 0.10662779 -0.09614791
-0.092778936 0.083931744 -0.020133061 -0.08045332 0.09920956 0.037671134 0.04742819 0.07017951
0.00028981746 0.12131788 0.10427961 -0.04194303 0.093300074 -0.07395029 -0.10196246 0.03772828
0.083030835 0.024586812 0.08483456 -0.0878851 -0.05939254 0.03337498 -0.05359459 0.07440092
0.053144276 -0.017561411 0.09430729 -0.12013447 0.10915156 -0.044003695 -0.039199233 -0.016296685
0.0667896 -0.0010142035 0.062338695 -0.007770383 0.051154062 -0.042997375 -0.091247305 0.026517421
-0.10757525 -0.018263295 0.12350853 0.11399226 -0.081320494 -0.057711065 0.042209268 -0.093551785
-0.06343347 0.007816576 0.11930448 -0.015487359 0.10149646 0.032630105 0.00039309572 -0.019839078
0.09953581 -0.029052436 0.001439887 -0.0059783193 -0.0044062785 0.037766263 0.06438455 0.09815626
0.01647915 -0.046906933 0.027496696 -0.058383062 -0.0020612201 -0.0712852 -0.10412651 -0.11436282
0.1053416 -0.04300654 0.031343907 -0.06046565 0.064344615 -0.11662614 0.11552787 0.116311565
0.030221492 0.09347996 -0.01182541 0.088342205 0.057368606 -0.027139738 -0.10854107 -0.016462073
-0.07260293 -0.09799275 0.08597176 0.11914937 0.09030937 0.023905411 -0.041049466 -0.09393735
-0.12489459 0.09063816 0.027762845 -0.054473326 0.027070373 0.030713007 -0.061597764 -0.10033372
-0.056523263 -0.06220764 -0.11946805 0.08442502 0.07030356 0.05930862 -0.043196753 0.034931675
-0.007290885 0.073130354 0.10605571 0.09973784 0.11901678 -0.10559361 -0.07469626 0.06825611
-0.005283177 -0.06687915 0.050431907 0.088173926 -0.076698124 0.105471775 0.0391075 0.05075054
00000000: 3c45 ecbd 0813 4a3d 0061 453d f611 ec3d
00000010: 57ac ceba 6a6a 8e3d 842e 9bbd 2c18 70bd
00000020: 9060 0f3d 36d8 9abd 802f 99bd 4c69 373d
00000030: 6828 703d 4fbe 553d 298a 393d 30f2 513d
00000040: b07b ad3d 4061 5abc 7acc f7bd 8426 6f3d
00000050: d839 e1bc c4b2 d43d 80ee 083d 3e99 e7bd
00000060: 6a41 b7bd fe5c a4bd 8290 9abd 38e7 ff3d
00000070: 2cbb a03d 08a9 a63c e44a c8bd 2221 8b3d
00000080: 64bc 8d3d 5083 403d e83f d0bd 1746 3ebc
00000090: 8815 8f3d c826 633d e966 12bc f460 3b3d
000000a0: 9a05 993d 8e02 e9bd 2cfa 3cbd f0d0 d5bd
000000b0: 588b 9f3d e711 103d e2d2 9dbb 6848 6ebd
000000c0: 0c91 4e3d bc44 f6bb 4446 63bd b2f2 473b
000000d0: 205a dcbd 3223 163d 0066 883c f6dc 81bd
000000e0: 7ea0 8cbd 361e 96bd b47e ef3c 4205 c23d
000000f0: 2aaa fabd d229 8fbc b440 e2bd 7a30 a33d
00000100: dc57 0f3c aea3 903d 967e 193d 2c7f c7bd
00000110: 4e24 8e3d 1e72 e13d ecc7 a43d 30cb 47bd
00000120: 2eab e93d 4cd0 39bd eb5b b23c 5bd9 723c
00000130: 6c65 5b3d 12dd 91bd 34c2 c53c cce3 ba3d
00000140: 4833 79bd 9491 a93d 1257 c3bd e8ad 6a3d
00000150: b6d3 ffbd 50ed ac3c ec8f 94bd a764 7d3c
00000160: 72bd afbd ec51 1dbd ce6b b73d a83b eb3d
00000170: 0c13 26bd 449c c6bd e02b 55bd eb48 43bb
00000180: fc1e 343d 6236 f03d b8c2 b63d 0553 053c
00000190: 2477 99bd 8497 e0bd f424 d0bd eebb d33d
000001a0: f4a2 78bd 0080 81bc 6c32 f43d 9e33 693c
000001b0: ca08 8f3d d6e7 373d 60d6 313d 6438 43bd
000001c0: 5c62 4ebd 8c16 c63d d115 53bc dc45 9b3d
000001d0: b24a 89bd d033 253d 606c e33d 7014 c2bc
000001e0: 2462 fabd 18a3 1a3d 2afb d2bd 7e80 a9bd
000001f0: 2af7 883d a87c c7bd ac5f da3d 32e9 c4bd
00000200: e202 bebd 68e4 ab3d 17ee a4bc b6c4 a4bd
00000210: 622e cb3d 0c4d 1a3d 1044 423d 46ba 8f3d
00000220: a4f2 9739 8275 f83d 8c90 d53d 74cc 2bbd
00000230: 1c14 bf3d 4073 97bd b2d1 d0bd f888 1a3d
00000240: 120c aa3d 486a c93c bebd ad3d 1afd b3bd
00000250: 9845 73bd 34b4 083d 0086 5bbd 825f 983d
00000260: d0ad 593d f3dc 8fbc 2e24 c13d 1009 f6bd
00000270: da8a df3d 383d 34bd 608f 20bd a080 85bc
00000280: fcc8 883d 06ef 84ba dc56 7f3d b29e febb
00000290: ec86 513d 041e 30bd dedf babd 103b d93c
000002a0: 6a50 dcbd e89c 95bc 0af2 fc3d c674 e93d
000002b0: 5c8b a6bd 7062 6cbd a0e3 2c3d 1498 bfbd
000002c0: 68e9 81bd 1911 003c e855 f43d b1be 7dbc
000002d0: 60dd cf3d 25a7 053d 6a18 ce39 9085 a2bc
000002e0: 6ed9 cb3d 60ff edbc 97ba bc3a c7e5 c3bb
000002f0: 8b62 90bb ccb0 1a3d 0cdc 833d 2606 c93d
00000300: 48ff 863c 7c21 40bd c040 e13c 1423 6fbd
00000310: 8915 07bb fafd 91bd 4840 d5bd 0e37 eabd
00000320: 56bd d73d a027 30bd 7862 003d d4aa 77bd
00000330: 1cc7 833d b0d9 eebd e099 ec3d c234 ee3d
00000340: 1093 f73c 6c72 bf3d 5dbf 41bc c2ec b43d
00000350: 58fb 6a3d 2854 debc c84a debd 78db 86bc
00000360: d8b0 94bd 6cb0 c8bd f611 b03d 9604 f43d
00000370: 1ef4 b83d 48d5 c33c 7c23 28bd 3a62 c0bd
00000380: bcc8 ffbd 80a0 b93d e86e e33c 6c1f 5fbd
00000390: b0c2 dd3c d899 fb3c f04d 7cbd c47b cdbd
000003a0: f084 67bd 70cd 7ebd aaab f4bd 06e7 ac3d
000003b0: 50fb 8f3d 98ed 723d 14ef 30bd 8414 0f3d
000003c0: 60e8 eebb 5ec5 953d bc33 d93d 5a43 cc3d
000003d0: 12bf f33d 7641 d8bd 5afa 98bd dcc9 8b3d
000003e0: 801e adbb f0f7 88bd b091 4e3d 8894 b43d
000003f0: e813 9dbd 9601 d83d 302f 203d ccdf 4f3d

lstm.bias_ih_l0_reverse f4 [256]
-0.11799307 0.063071355 -0.0036518257 0.10621752 0.057645395 0.10766801 -0.042984355 -0.09317747
-0.029183839 0.10946921 -0.04544951 0.08372993 0.06313006 -0.016783139 -0.08576985 0.090630084
-0.061556477 -0.086052105 -0.0034323523 -0.08386715 0.0016429321 -0.041003168 -0.02465027 -0.051769428
0.053962674 0.024794014 -0.069285154 0.10253476 0.10293466 0.06602047 -0.0584692 0.008830585
0.059298504 0.027017193 0.0747997 -0.0615898 -0.10105621 0.12224263 -0.033271298 0.04441498
-0.013777639 -0.05532877 -0.030920178 0.08317881 -0.1141441 0.04103008 0.0018016114 0.09162508
0.036965795 -0.061344 -0.054610677 0.08149917 -0.108975165 -0.063692085 0.09779116 -0.088193156
0.07098359 -0.08577405 0.024296567 0.11804624 0.03662562 0.043897666 -0.088033244 0.012080021
-0.0015931393 0.023366982 -0.07229421 -0.06503946 0.029235346 0.00025493326 -0.043150276 0.05972746
0.08005863 0.015790323 -0.100537635 0.10463776 -0.1072663 -0.018326605 0.027791113 -0.0051544826
-0.069232084 0.021072347 0.1007145 -0.04656238 0.096073054 -0.06817483 -0.054842655 0.12209789
-0.07168738 0.11750828 -0.09401897 0.09162668 -0.10884798 -0.08181927 0.031116307 -0.06645147
-0.11437086 0.07311371 -0.049704373 0.12373275 -0.11298733 -0.043645542 -0.050305963 -0.038553588
0.10487917 -0.043599896 -0.08600279 0.10861465 0.12312833 0.024030667 -0.090280324 0.112497166
-0.1150703 0.0756912 0.03878743 0.11643446 0.101076856 -0.026726164 0.09221131 0.0037122576
0.09933114 0.10208278 -0.07071976 -0.077652685 -0.08483455 0.11705801 -0.066721216 0.09372892
-0.048207838 0.034893192 0.040856335 0.017330136 0.09515237 -0.050084747 -0.0372569 0.03856438
-0.07842209 -0.00066955824 -0.08174948 -0.011187448 -0.09533136 0.06162398 -0.030866241 0.11906011
-0.05819651 -0.08267066 -0.105290696 0.04824312 0.042692844 0.118691035 0.10015556 -0.09753701
0.008313274 -0.06944912 -0.033730235 -0.022334069 -0.0224956 -0.030940622 -0.02274445 -0.10339238
-0.083754286 0.046614513 0.022096008 0.1173596 0.085175455 -0.047673438 0.106688134 -0.11014715
-0.03211245 0.010022734 -0.077072814 0.068845496 -0.045175184 0.11139979 0.082639866 0.08417689
-0.038718645 0.06776002 -0.069968544 -0.055468287 -0.03829105 0.05919082 -0.020366533 0.07191301
-0.07862715 0.06986828 0.04167387 -0.023031523 0.03960699 -0.123955734 0.10597633 -0.017322004
0.11304818 0.091229595 0.077818416 -0.043904938 0.002632329 -0.025929483 -0.104495674 0.072791554
-0.013002979 0.0718719 0.03603471 0.03868866 0.042489238 -0.048914142 -0.07651373 -0.033347707
0.043615047 0.032710787 -0.03523222 -0.11512472 0.043353967 0.013589134 -0.040893737 -0.058853365
-0.09359011 0.121865235 0.026370639 0.07601403 -0.01629349 -0.032590155 -0.055332765 0.11077742
0.0017403224 -0.030133655 0.025228396 -0.09437711 0.0062988927 2.7777038e-05 -0.012753062 -0.1057927
-0.08791902 -0.11289729 0.10562011 -0.10620657 0.029864883 0.1001177 -0.027524216 -0.07475451
-0.05916411 0.05479206 0.037821554 -0.05231252 -0.004618436 -0.12077791 -0.032180477 -0.004009105
-0.08960497 -0.05288016 0.05011291 -0.121434756 0.06786282 -0.045086864 -0.047616523 0.11918874
00000000: 5aa6 f1bd 8e2b 813d 7853 6fbb 9288 d93d
00000010: 941d 6c3d 0c81 dc3d 5d10 30bd d4d3 bebd
00000020: f212 efbc 6531 e03d 4429 3abd 997a ab3d
00000030: 554a 813d cb7c 89bc 1aa8 afbd 449c b93d
00000040: a522 7cbd 163c b0bd 51f1 60bb 8ac2 abbd
00000050: a757 d73a f0f2 27bd 5def c9bc 2e0c 54bd
00000060: f707 5d3d d11c cb3c 60e5 8dbd bffd d13d
00000070: 68cf d23d bd35 873d 667d 6fbd 28ae 103c
00000080: fde2 723d 2953 dd3c 9630 993d 9645 7cbd
00000090: 8ff6 cebd 585a fa3d 7c47 08bd 7bec 353d
000000a0: 9bbb 61bc 6ca0 62bd 504c fdbc a759 aa3d
000000b0: 62c4 e9bd 280f 283d 0c24 ec3a eea5 bb3d
000000c0: 7269 173d d943 7bbd 72af 5fbd 09e9 a63d
000000d0: 5f2e dfbd ff70 82bd bb46 c83d 9d9e b4bd
000000e0: d85f 913d 4eaa afbd 9809 c73c 3ac2 f13d
000000f0: bf04 163d 0ace 333d c64a b4bd 48eb 453c
00000100: e2d0 d0ba 1d6c bf3c fd0e 94bd 6933 85bd
00000110: f77e ef3c 90a8 8539 58be 30bd c8a4 743d
00000120: c7f5 a33d b55a 813c ade6 cdbd 524c d63d
00000130: 6fae dbbd ad21 96bc 30aa e33c efe6 a8bb
00000140: 8dc9 8dbd ea9f ac3c 6743 ce3d 32b8 3ebd
00000150: f3c1 c43d 3f9f 8bbd b1a2 60bd 750e fa3d
00000160: d5d0 92bd 2ea8 f03d 058d c0bd c5a6 bb3d
00000170: b1eb debd dd90 a7bd a0e7 fe3c b517 88bd
00000180: 453b eabd a4bc 953d d096 4bbd 9967 fd3d
00000190: e765 e7bd abc5 32bd a00d 4ebd 5eea 1dbd
000001a0: e4ca d63d ce95 32bd 3b22 b0bd 5c71 de3d
000001b0: b52a fc3d f6db c43c e4e4 b8bd ea64 e63d
000001c0: faa9 ebbd fd03 9b3d 91df 1e3d 3175 ee3d
000001d0: 6201 cf3d d4f0 dabc 49d9 bc3d 5949 733b
000001e0: 206e cb3d c710 d13d 86d5 90bd 5f08 9fbd
000001f0: bdbd adbd 1cbc ef3d 22a5 88bd f3f4 bf3d
00000200: 9575 45bd 2aec 0e3d f958 273d eef7 8d3c
00000210: 3fdf c23d aa25 4dbd b19a 18bd aff5 1d3d
00000220: c39b a0bd 4b85 2fba 456c a7bd 8f4b 37bc
00000230: 173d c3bd 6d69 7c3d 33db fcbc c9d5 f33d
00000240: 775f 6ebd 3c4f a9bd a6a2 d7bd 949a 453d
00000250: b1de 2e3d 4914 f33d 5c1e cd3d 7cc1 c7bd
00000260: 6634 083c 573b 8ebd b728 0abd f0f5 b6bc
00000270: b148 b8bc 3077 fdbc 9252 babc 62bf d3bd
00000280: 5e87 abbd dcee 3e3d b002 b53c 3b5a f03d
00000290: 7870 ae3d 3945 43bd 4f7f da3d d494 e1bd
000002a0: 5888 03bd 6536 243c 5ad8 9dbd defe 8c3d
000002b0: 9d09 39bd 9325 e43d 173f a93d ef64 ac3d
000002c0: 7197 1ebd c4c5 8a3d ab4b 8fbd b732 63bd
000002d0: 13d7 1cbd 1372 723d b7d7 a6bc 2147 933d
000002e0: 4507 a1bd 1a17 8f3d 38b2 2a3d 9bac bcbc
000002f0: f03a 223d 81dc fdbd 1e0a d93d e0e6 8dbc
00000300: ce85 e73d 95d6 ba3d 435f 9f3d aad5 33bd
00000310: 2783 2c3b 116a d4bc d401 d6bd bd13 953d
00000320: 720a 55bc 9331 933d 2299 133d 0078 1e3d
00000330: 3209 2e3d 325a 48bd 3bb3 9cbd 9b97 08bd
00000340: b1a5 323d bffb 053d a94f 10bd 82c6 ebbd
00000350: ee93 313d f6a4 5e3c 3180 27bd 3a10 71bd
00000360: 2cac bfbd 7b94 f93d 3d07 d83c 3ead 9b3d
00000370: ed79 85bc 417d 05bd 9ca4 62bd 46df e23d
00000380: 881b e43a dbda f6bc c8ab ce3c c948 c1bd
00000390: f166 ce3b bc02 e937 38f2 50bc d8a9 d8bd
000003a0: e30e b4bd b236 e7bd 5b4f d83d d582 d9bd
000003b0: 33a7 f43c 820a cd3d 777a e1bc e418 99bd
000003c0: 1156 72bd a46d 603d c6ea 1a3d a745 56bd
000003d0: 4056 97bb 695a f7bd adcf 03bd cf5e 83bb
000003e0: cf82 b7bd de98 58bd 3243 4d3d c9b2 f8bd
000003f0: aafb 8a3d 01ad 38bd 8b09 43bd 3a19 f43d
