model_train.pth (torch, 191820 bytes, 12 tensors)

lstm.weight_ih_l0 f4 [256, 10]
0.056261975 -0.103304185 -0.07647604 -0.0664392 0.021167418 0.056188233 0.0005899352 0.11781403
0.096003994 0.05572644 -0.06601251 -0.08362316 -0.02374515 -0.002305234 0.006206086 -0.011980909
-0.059078697 -0.0812425 0.0028348342 -0.10335569 0.053631235 -0.11498636 0.11184706 0.0961238
0.018077504 0.07528434 -0.08138966 0.09615105 0.02286984 0.055044293 0.09563349 0.025895653
-0.12307502 -0.037366018 0.113223135 0.1038227 -0.003159051 -0.112437256 -0.11143668 0.07758695
-0.056568444 -0.11948471 0.011810839 0.004646793 -0.037688278 0.06731072 -0.036751322 -0.032328695
0.014333099 0.038685635 -0.06892935 -0.04616515 -0.100127906 0.05093144 0.030442163 0.059444413
0.092993975 0.017834334 0.09815508 0.11372861 -0.10602146 0.10979747 -0.06632136 0.043060884
-0.08798343 -0.10542299 -0.10878794 0.020359987 -0.04085712 -0.11332649 0.044184495 0.027854513
-0.022624284 -0.003758102 0.04042915 -0.083191946 0.12261021 -0.10432005 -0.077292025 0.008287415
0.11675777 0.009460182 0.07502158 -0.11996269 -0.08515146 0.08020638 0.09151045 -0.09230831
0.041870505 0.06656541 -0.068845905 -0.10248965 -0.056792155 0.11794737 -0.10350336 -0.038926385
-0.041498046 -0.056949474 0.020023838 -0.06830235 0.08525104 0.105444305 -0.059758678 -0.1029986
-0.1134218 -0.10620387 0.03930332 0.058040425 0.054861426 0.0076066107 0.09628502 0.0965152
-0.017404214 -0.107306 -0.014440948 0.016184572 0.05336997 -0.015124162 0.098228246 -0.10878864
0.037255105 0.06706234 -0.06513812 0.028677002 0.0756484 -0.03327236 -0.1153301 0.11438812
-0.0023312122 0.021576732 0.096246354 0.051761158 0.08891277 0.02487041 -0.08560088 -0.070539
-0.09964125 0.054578323 -0.08666289 -0.04547158 -0.054612946 -0.10573624 -0.0474696 0.10386336
-0.06378212 -0.028524926 -0.0859291 -0.09282866 -0.07584822 -0.043495968 0.0070546046 -0.07985596
0.08534956 -0.06774691 0.038105883 0.00782803 -0.121435896 0.0922783 -0.08037488 -0.022950575
-0.10777805 -0.08005279 -0.06731124 -0.087085396 -0.012578585 -0.0070193666 -0.059309952 -0.04392631
-0.0902452 0.08733611 0.09145093 0.052185923 -0.012667194 -0.11299485 -0.124664426 0.066617906
-0.09014127 -0.077502966 0.004521087 0.02861987 0.06741506 -0.06577921 -0.0471853 -0.0044551194
-0.07187698 -0.0026068385 -0.08833372 0.083768696 0.07563838 -0.058367953 0.08500046 -0.012508133
0.07969266 -0.12453298 -0.05600658 -0.111902 0.081187114 -0.10591437 0.07355489 -0.081975356
-0.053080034 0.059970003 0.09017712 -0.07941653 0.037528075 0.039703548 0.10848046 -0.0396481
-0.038403332 0.009110302 -0.060603984 -0.09628311 -0.11647336 -0.103000894 -0.00070697314 -0.108733036
-0.09582284 -0.07470689 0.12415077 -0.059510067 0.035886277 0.034892756 0.035103723 0.016319811
-0.018759847 0.09649019 0.0984575 0.112269804 0.09299587 -0.123568594 -0.052485283 0.07317344
-0.04583673 0.054526195 -0.10054967 0.10194522 0.1037855 -0.10920927 -0.091059804 0.059832484
-0.083165236 0.06693657 -0.029068843 -0.07160036 0.11713867 0.027787449 0.029054254 0.06502111
0.035784274 -0.116852656 0.12111727 -0.04367098 0.11916092 -0.007929012 -0.04115881 0.06159683
00000000: f572 663d 2591 d3bd 789f 9cbd 4611 88bd
00000010: 4b67 ad3c a225 663d e2a5 1a3a 7b48 f13d
00000020: be9d c43d 6841 643d 9131 87bd 9f42 abbd
00000030: 3085 c2bc 6913 17bb 6c5c cb3b 934b 44bc
00000040: 81fc 71bd 7862 a6bd a0c8 393b 26ac d3bd
00000050: 6dac 5b3d f87d ebbd 1210 e53d 8edc c43d
00000060: 4617 943c ad2e 9a3d 9faf a6bd d7ea c43d
00000070: 8859 bb3c 2076 613d 7edb c33d 1f23 d43c
00000080: c20e fcbd 1c0d 19bd 88e1 e73d ffa0 d43d
00000090: 1508 4fbb 8145 e6bd ea38 e4bd e8e5 9e3d
000000a0: 50b4 67bd 66b4 f4bd 4082 413c 2044 983b
000000b0: 065f 1abd 34da 893d 8e88 16bd 186b 04bd
000000c0: 60d5 6a3c d474 1e3d d52a 8dbd ab17 3dbd
000000d0: dc0f cdbd 7c9d 503d d861 f93c fc7b 733d
000000e0: a073 be3d 4f19 923c 8805 c93d 8cea e83d
000000f0: c721 d9bd 7fdd e03d 7ed3 87bd 9c60 303d
00000100: a830 b4bd 02e8 d7bd 36cc debd fdc9 a63c
00000110: cc59 27bd b817 e8bd cdfa 343d 262f e43c
00000120: 9056 b9bc 7d4a 76bb 0999 253d 8a60 aabd
00000130: 101b fb3d c0a5 d5bd 484b 9ebd f0c7 073c
00000140: b31e ef3d e1fe 1a3c eaa4 993d 00af f5bd
00000150: e363 aebd 3e43 a43d d569 bb3d 240c bdbd
00000160: 6880 2b3d 7253 883d 15ff 8cbd 18e6 d1bd
00000170: e49e 68bd 648e f13d 92f9 d3bd 4671 1fbd
00000180: dbf9 29bd da43 69bd 0809 a43c 1ae2 8bbd
00000190: 1998 ae3d 2ff3 d73d 84c5 74bd eef0 d2bd
000001a0: b049 e8bd 6a81 d9bd 85fc 203d ccbb 6d3d
000001b0: 60b6 603d e040 f93b 1531 c53d c3a9 c53d
000001c0: 4893 8ebc 40c3 dbbd ba99 6cbc 8295 843c
000001d0: 789a 5a3d 55cb 77bc e42b c93d 94cc debd
000001e0: cf98 183d fb57 893d 2267 85bd 08ec ea3c
000001f0: 8ced 9a3d 9948 08bd 3032 ecbd 5244 ea3d
00000200: 40c7 18bb b0c1 b03c cf1c c53d 8203 543d
00000210: e617 b63d 08bd cb3c 844f afbd c076 90bd
00000220: b610 ccbd 858d 5f3d 507c b1bd 6840 3abd
00000230: d3b1 5fbd 3e8c d8bd 7c6f 42bd 50b6 d43d
00000240: 33a0 82bd 1bad e9bc 99fb afbd f41c bebd
00000250: 5056 9bbd d428 32bd 502a e73b 868b a3bd
00000260: c0cb ae3d e4be 8abd ea14 1c3d 2341 003c
00000270: 62b3 f8bd 68fc bc3d 969b a4bd d802 bcbc
00000280: bdba dcbd b8f2 a3bd 7ada 89bd d459 b2bd
00000290: 6916 4ebc b702 e6bb feee 72bd 13ec 33bd
000002a0: 7ad2 b8bd 46dd b23d a04a bb3d e8c0 553d
000002b0: 108a 4fbc d869 e7bd 1050 ffbd f86e 883d
000002c0: fc9b b8bd e0b9 9ebd a025 943b 3874 ea3c
000002d0: e810 8a3d 40b7 86bd 6045 41bd 40fc 91bb
000002e0: 3d34 93bd 7ed7 2abb 4fe8 b4bd ec8e ab3d
000002f0: 4ce8 9a3d 3c13 6fbd b914 ae3d eaee 4cbc
00000300: e835 a33d 260b ffbd 2867 65bd e02c e5bd
00000310: 6e45 a63d a2e9 d8bd f2a3 963d b2e2 a7bd
00000320: 736a 59bd 1ba3 753d c8ae b83d 22a5 a2bd
00000330: 0ab7 193d 30a0 223d 012b de3d 0c66 22bd
00000340: d04c 1dbd 6043 153c e23b 78bd 1430 c5bd
00000350: 9689 eebd 22f2 d2bd 2a54 39ba 6daf debd
00000360: c43e c4bd edff 98bd c242 fe3d d4c0 73bd
00000370: 7dfd 123d b5eb 0e3d ecc8 0f3d 20b1 853c
00000380: 40ae 99bc a69c c53d 16a4 c93d b6ed e53d
00000390: 9e74 be3d 8811 fdbd cffa 56bd f5db 953d
000003a0: 4cbf 3bbd dc56 5f3d fcec cdbd a8c8 d03d
000003b0: 7e8d d43d 1ca9 dfbd 907d babd e812 753d
000003c0: 8952 aabd 0a16 893d c821 eebc 36a3 92bd
000003d0: 66e6 ef3d 81a2 e33c 3003 ee3c ca29 853d
000003e0: 8892 123d 7250 efbd 550c f83d 57e0 32bd
000003f0: a40a f43d b0e8 01bc 2496 28bd f54c 7c3d

lstm.weight_hh_l0 f4 [256, 64]
-0.017305229 0.0981124 -0.036346853 0.04332105 0.07697393 -0.0921191 0.053986333 -0.09179606
-0.068383366 0.03648825 -0.10297018 -0.04830727 -0.08499937 0.056406703 0.08846284 0.12381394
0.114839725 0.063210726 -0.11254981 -0.009126391 -0.020964103 -0.08431648 -0.10249916 0.061610624
0.017911 -0.017926883 -0.11792207 0.06725666 0.10238772 -0.01947619 -0.052154113 0.124669455
-0.09633637 -0.12165836 0.096839756 0.06432913 -0.089661464 0.053889334 0.00041259313 -0.07315746
-0.03861877 0.12423373 -0.0805445 0.078816816 0.08970694 0.057741508 0.038554344 -0.012103417
-0.045216642 -0.090540335 -0.05714207 -0.06822693 -0.012455374 0.11993091 0.06554764 0.0039854725
-0.02597077 0.0013714585 0.017797839 -0.09776162 0.10317225 0.12032344 -0.046021674 0.0060717007
0.052711632 -0.104822494 0.058385 -0.115798 0.074607685 0.04778482 0.022020888 0.084059104
-0.06654145 -0.08525443 -0.10645352 0.009003833 -0.114727356 -0.022401042 0.03500683 -0.07650915
0.08950197 -0.056330193 -0.05807829 0.010523722 -0.0062163835 -0.12165025 0.04986842 0.08743483
0.09357829 0.117009476 0.08460129 -0.07373388 0.10901408 0.07480915 -0.0391308 0.053139906
-0.046066683 -0.07544161 0.009729858 0.0076954574 -0.10357268 -0.018035755 -0.0113744745 -0.106129155
-0.077421956 -0.036142986 -0.12067544 -0.08664718 -0.037359774 0.0036954568 0.11836773 0.120762885
0.0038085263 -0.023667252 -0.12071474 -0.10205318 -0.11283427 -0.039338022 -0.12205936 -0.11010456
0.059971225 -0.08770646 -0.053685676 0.061819836 0.06877773 -0.07201796 0.019286381 -0.014296943
-0.026285695 -0.06636235 0.029909818 0.111183256 -0.067660555 0.09101415 0.034217283 -0.10665451
-0.010120565 0.05831206 -0.017796854 -0.022897482 0.064513355 -0.04034546 0.010379629 -0.0402461
-0.087720364 0.07243778 -0.038819402 0.076156884 -0.07737033 -0.0065357955 0.10106774 -0.014525205
-0.07636057 -0.11316033 0.09367007 -0.10220435 0.047527175 0.12423137 -0.08741765 0.023171294
0.008271737 0.063146904 -0.06350079 0.11889416 -0.0031416516 0.11318916 -0.028050529 -0.0630081
0.07692021 -0.09245987 -0.043749243 -0.044718906 0.11564766 0.06273973 -0.09141867 0.107603714
0.063552245 -0.1012333 0.014125874 -0.0744672 0.06260688 -0.021303385 -0.12331784 0.023172526
-0.007388019 -0.0054405797 0.03405838 -0.093078986 -0.03086306 0.11807595 0.096984416 -0.07879853
0.035088822 -0.033255845 0.022354469 0.07893962 0.11189404 0.03581345 0.11325355 -0.08636537
-0.07392046 -0.04108098 -0.029866591 -0.045551434 -0.022064703 0.0037244307 0.06738204 -0.030427217
0.09446478 0.08068554 -0.039231747 0.06108071 -0.042947873 -0.035836548 0.050708935 -0.09245637
0.08668496 -0.018580094 0.022255186 0.061197713 -0.014410102 0.0042333766 -0.08339389 -0.11665936
0.09770009 0.012066034 0.06154202 0.033651352 0.014931178 0.036721244 0.02333203 -0.09921989
0.039841175 -0.08486149 0.047261834 0.024026686 -0.08609711 -0.012338942 -0.0816783 0.0012468484
-0.119579375 -0.12257694 0.065610185 -0.068795785 -0.019943077 0.093422696 -0.014300978 0.10437979
0.071846426 0.026701849 -0.06279321 -0.033402696 0.041910425 0.059083417 -0.12495296 0.03164065
00000000: b2c3 8dbc 27ef c83d 70e0 14bd 6a71 313d
00000010: 82a4 9d3d f0a8 bcbd c620 5d3d 93ff bbbd
00000020: 940c 8cbd b474 153d 08e2 d2bd d8dd 45bd
00000030: 2614 aebd b70a 673d 012c b53d 2a92 fd3d
00000040: 1731 eb3d a074 813d 8480 e6bd dc86 15bc
00000050: e9bc abbc 1eae acbd 14eb d1bd 6c5b 7c3d
00000060: 17ba 923c 66db 92bc 2081 f1bd dcbd 893d
00000070: a7b0 d13d 888c 9fbc 8d9f 55bd b352 ff3d
00000080: 014c c5bd 0528 f9bd ec53 c63d febe 833d
00000090: 6ea0 b7bd 10bb 5c3d 5051 d839 94d3 95bd
000000a0: b72e 1ebd 416e fe3d 84f4 a4bd b66a a13d
000000b0: 46b8 b73d 5c82 6c3d 29eb 1d3d 694d 46bc
000000c0: 1635 39bd 366d b9bd ce0d 6abd 90ba 8bbd
000000d0: a011 4cbc 569e f53d d73d 863d 9198 823b
000000e0: a7c0 d4bc 83c2 b33a c6cc 913c 3f37 c8bd
000000f0: f94b d33d 236c f63d 3981 3cbd 1ef5 c63b
00000100: 27e8 573d 2dad d6bd 1c25 6f3d 8027 edbd
00000110: eacb 983d 04ba 433d 2665 b43c 2e27 ac3d
00000120: e246 88bd e099 aebd 4e04 dabd d084 133c
00000130: 2df6 eabd 6482 b7bc 5263 0f3d d4b0 9cbd
00000140: cf4c b73d 7dba 66bd 80e3 6dbd b06b 2c3c
00000150: ceb2 cbbb c423 f9bd d442 4c3d 0811 b33d
00000160: f9a5 bf3d aaa2 ef3d 7143 ad3d ca01 97bd
00000170: c642 df3d 8a35 993d 9e47 20bd 3ba9 593d
00000180: 6bb0 3cbd 2181 9abd fb69 1f3c 2d2a fc3b
00000190: ea1d d4bd b8bf 93bc 015c 3abc 3e5a d9bd
000001a0: 678f 9ebd ab0a 14bd af24 f7bd 1474 b1bd
000001b0: 9006 19bd 7a2f 723b c86a f23d 8852 f73d
000001c0: 7898 793b d3e1 c1bc 4a39 f7bd 4201 d1bd
000001d0: a715 e7bd e820 21bd 42fa f9bd 807e e1bd
000001e0: 63a4 753d 729f b3bd 83e5 5bbd cc36 7d3d
000001f0: 57db 8c3d 277e 93bd 79fe 9d3c ba3d 6abc
00000200: 1955 d7bc fce8 87bd 6f05 f53c 0cb4 e33d
00000210: 9e91 8abd a065 ba3d 6c27 0c3d ae6d dabd
00000220: bad0 25bc a0d8 6e3d b5ca 91bc 8093 bbbc
00000230: 941f 843d 4841 25bd 520f 2a3c 18d9 24bd
00000240: bca6 b3bd 425a 943d 1801 1fbd 24f8 9b3d
00000250: 5674 9ebd 3a2a d6bb 9afc ce3d 20fb 6dbc
00000260: ee62 9cbd 9ac0 e7bd 18d6 bf3d 8450 d1bd
00000270: dbab 423d 046d fe3d 0608 b3bd bad1 bd3c
00000280: 2e86 073c 2a53 813d b40c 82bd c87e f33d
00000290: 2be4 4dbb b8cf e73d 39ca e5bc 640a 81bd
000002a0: 5888 9d3d 9a5b bdbd 6832 33bd 2c2b 37bd
000002b0: aed8 ec3d b07d 803d b639 bbbd 565f dc3d
000002c0: ae27 823d 6853 cfbd 3670 673c 4282 98bd
000002d0: 0938 803d 7084 aebc 108e fcbd 4fd4 bd3c
000002e0: 3217 f2bb e446 b2bb cd80 0b3d 32a0 bebd
000002f0: 87d4 fcbc ced1 f13d c49f c63d 2061 a1bd
00000300: 4cb9 0f3d 4837 08bd b820 b73c 18ab a13d
00000310: b428 e53d 20b1 123d 7af1 e73d 54e0 b0bd
00000320: 9c63 97bd 8844 28bd c8aa f4bc 2494 3abd
00000330: 09c1 b4bc 9415 743b 98ff 893d 8042 f9bc
00000340: c076 c13d 763e a53d 78b1 20bd c42f 7a3d
00000350: 1cea 2fbd 58c9 12bd 2cb4 4f3d c459 bdbd
00000360: e287 b13d 4835 98bc 8250 b63c 74aa 7a3d
00000370: 5918 6cbc 23b8 8a3b 6aca aabd 1aeb eebd
00000380: fc16 c83d 9db0 453c 7c13 7c3d 00d6 093d
00000390: e6a1 743c 0469 163d d022 bf3c cc33 cbbd
000003a0: 8030 233d dccb adbd a095 413d 9dd3 c43c
000003b0: ae53 b0bd 4629 4abc f446 a7bd 4a6d a33a
000003c0: 08e6 f4bd 9e09 fbbd a25e 863d cee4 8cbd
000003d0: aa5f a3bc 6654 bf3d a64e 6abc 12c5 d53d
000003e0: 3824 933d d6bd da3c ba99 80bd 44d1 08bd
000003f0: 44aa 2b3d 7401 723d 56e7 ffbd a099 013d

lstm.bias_ih_l0 f4 [256]
0.09794241 -0.05564614 0.097456075 0.04431629 -0.0360754 -0.054838534 0.0044591716 -0.12056568
0.080539346 0.026732704 0.060457803 -0.036406 0.11180124 -0.08444527 -0.05536679 -0.05123276
0.07474322 -0.10392759 -0.07132973 0.10638726 -0.037515957 0.03484604 0.053267434 0.0141035095
0.10985267 -0.116425246 0.114031374 0.12152623 0.09581859 0.124620974 0.09295006 0.08008069
-0.051261898 0.007412941 0.031788334 0.11484628 0.08811653 -0.050535187 0.02786251 0.09293255
0.08711347 -0.08943039 0.025264455 -0.087636895 -0.05877152 0.08859026 0.11415363 0.08031757
-0.032626774 0.05037278 -0.01697266 0.016802179 0.056085654 -0.06072453 0.026026502 -0.076889955
-0.051051065 0.028605647 0.009226893 0.0272146 0.030392399 -0.08585165 0.048994835 0.0062394287
0.08825946 -0.06578009 -0.06356695 -0.038863648 -0.060756132 -0.11884965 -0.10231256 0.057260387
0.082785234 0.10402486 0.0154073285 0.04805949 0.027949203 -0.10046857 -0.0020232622 0.072465174
-0.10381268 -0.047911774 0.020109046 -0.040079314 0.045843232 0.026604692 -0.0692676 0.0542864
0.043953113 0.08040504 0.04806126 0.00093751337 -0.031710807 -0.10865611 0.055717472 0.026989795
0.076780416 -0.011263892 0.10675436 0.099831976 0.079907976 0.07726295 0.11278224 0.041917868
0.011550565 0.046832845 0.1151574 0.047497623 -0.108366735 0.11392355 -0.018326925 -0.10027706
0.07327127 -0.1008562 0.05715998 -0.077165455 -0.08991822 0.0150715 -0.052214175 0.102212146
0.093211144 0.10411556 0.101155646 0.09189586 -0.117857255 0.066570394 -0.011214074 0.048872028
0.029381372 -0.109880865 0.01399233 0.038473435 -0.05301387 -0.06321263 -0.041429557 0.036417447
0.027962655 -0.09838462 -0.05178614 -0.066765256 -0.08026412 0.06476463 0.048380747 0.057929046
-0.098992 0.046885375 -0.097398356 0.104662545 0.10746734 -0.06207329 -0.07102814 -0.026135663
0.122126795 0.012666184 -0.094830625 -0.074175864 0.026357824 0.0943225 -0.073177665 -0.048888706
-0.06504277 0.12399048 0.032834176 -0.1127634 0.0047710887 -0.047560014 -0.04025016 -0.104909405
-0.007808047 0.037360862 -0.00078645383 0.02333225 0.078898594 0.11926874 -0.011366013 -0.08583301
-0.09278977 -0.091453716 0.017904244 -0.039503 -0.10605907 0.06495984 -0.02442906 0.06644997
-0.060529005 0.1058152 -0.117144704 0.07827061 -0.0941151 -0.09865868 0.049196668 0.01156811
-0.0935932 0.04642443 -0.1040199 -0.057426907 -0.00837317 -0.105137005 0.03689044 -0.046570014
0.07097537 0.06976153 -0.040920116 -0.06314857 -0.06735763 0.021964967 0.123615064 0.02175091
0.09716764 -0.006423311 0.01420551 -0.075166374 0.10890149 -0.08672505 0.10665955 -0.10172838
0.004645296 -0.031017754 -0.038589872 -0.037012313 0.070524044 -0.10618754 -0.10646216 -0.049032815
0.101138964 0.0980359 -0.08042989 -0.12415186 0.06969896 -0.024663398 -0.095149904 -0.06402485
0.0019977088 0.0033359895 -0.053564705 0.10034028 0.09963048 0.09147015 -0.035709463 -0.06307801
-0.009725984 0.11114006 -0.103590295 -0.063686445 -0.10290746 0.06897725 0.10107577 -0.09550151
0.04428523 0.11172025 0.07943125 -0.08912532 0.03240328 0.08826414 -0.101101995 0.07096822
00000000: 0896 c83d 35ed 63bd 0d97 c73d 0085 353d
00000010: ccc3 13bd 5f9e 60bd 3e1e 923b 24eb f6bd
00000020: d0f1 a43d 8bfe da3c 9aa2 773d 751e 15bd
00000030: 0cf8 e43d a4f1 acbd 4ac8 62bd 71d9 51bd
00000040: f912 993d fdd7 d4bd 5215 92bd 90e1 d93d
00000050: 55aa 19bd b9ba 0e3d f42e 5a3d 6812 673c
00000060: 70fa e03d 5c70 eebd 4889 e93d bee2 f83d
00000070: 893c c43d 4839 ff3d 9a5c be3d 5801 a43d
00000080: fff7 51bd 42e8 f23b 7c34 023d 8734 eb3d
00000090: 7076 b43d fcfd 4ebd eb3f e43c 6c53 be3d
000000a0: 8c68 b23d 4827 b7bd 67f7 ce3c f97a b3bd
000000b0: 68ba 70bd cf6e b53d 61c9 e93d 8a7d a43d
000000c0: a7a3 05bd b053 4e3d 3f0a 8bbc b9a4 893c
000000d0: 12ba 653d 49ba 78bd 8835 d53c 7b78 9dbd
000000e0: ec1a 51bd 6456 ea3c 652c 173c 27f1 de3c
000000f0: 7bf9 f83c fdd2 afbd cfae 483d 1f74 cc3b
00000100: 60c1 b43d b6b7 86bd 642f 82bd 7d2f 1fbd
00000110: 6cdb 78bd 7267 f3bd 3f89 d1bd de89 6a3d
00000120: 4e8b a93d fc0a d53d 056f 7c3c 07da 443d
00000130: baf5 e43c 77c2 cdbd b598 04bb 9f68 943d
00000140: be9b d4bd 233f 44bd babb a43c 352a 24bd
00000150: 1dc6 3b3d 15f2 d93c 2cdc 8dbd 6b5b 5e3d
00000160: 2e08 343d 66ab a43d e2db 443d 75c3 753a
00000170: 31e3 01bd 1887 debd 0138 643d b419 dd3c
00000180: 0d3f 9d3d 308c 38bc 08a2 da3d b574 cc3d
00000190: cba6 a33d 0a3c 9e3d 60fa e63d 12b2 2b3d
000001a0: 953e 3d3c ccd3 3f3d a5d7 eb3d de8c 423d
000001b0: 61ef ddbd c050 e93d 5922 96bc 0f5e cdbd
000001c0: 3f0f 963d b28d cebd 9520 6a3d ec08 9ebd
000001d0: 0b27 b8bd 74ee 763c 88de 55bd 9a54 d13d
000001e0: 7ce5 be3d 8a3a d53d b12a cf3d e633 bc3d
000001f0: 255f f1bd 0f56 883d 3cbb 37bc 092e 483d
00000200: 34b1 f03c 3809 e1bd 1640 653c 5296 1d3d
00000210: 1225 59bd a075 81bd 0ab2 29bd 762a 153d
00000220: f011 e53c e07d c9bd b41d 54bd 39bc 88bd
00000230: 8461 a4bd 51a3 843d e42a 463d 0247 6d3d
00000240: 51bc cabd e10a 403d ca78 c7bd 5159 d63d
00000250: d617 dc3d 9040 7ebd 3477 91bd 751a d6bc
00000260: 9d1d fa3d d485 4f3c 8f36 c2bd 84e9 97bd
00000270: 5dec d73c 282c c13d 2cde 95bd 863f 48bd
00000280: 2535 85bd b9ee fd3d 217d 063d 7ff0 e6bd
00000290: cb56 9c3b 4ace 42bd 5add 24bd beda d6bd
000002a0: a5da ffbb b407 193d 062a 4eba 4623 bf3c
000002b0: 9695 a13d 2b43 f43d 8438 3abc 38c9 afbd
000002c0: 9008 bebd 164c bbbd ecab 923c e6cd 21bd
000002d0: 7f35 d9bd aa09 853d 741f c8bc ec16 883d
000002e0: 43ed 77bd a4b5 d83d 90e9 efbd 574c a03d
000002f0: 6bbf c0bd 900d cabd 7282 493d 2c88 3d3c
00000300: cbad bfbd 8b27 3e3d 6308 d5bd 7a38 6bbd
00000310: 9f2f 09bc 1252 d7bd 6e1a 173d 33c0 3ebd
00000320: 895b 913d 22df 8e3d da9b 27bd 0a54 81bd
00000330: ccf2 89bd e0ef b33c e529 fd3d f72e b23c
00000340: d4ff c63d a37a d2bb 3abe 683c d4f0 99bd
00000350: bf07 df3d e79c b1bd 5270 da3d f856 d0bd
00000360: 9137 983b f218 febc 6a10 1ebd 399a 17bd
00000370: e96e 903d da78 d9bd d508 dabd a2d6 48bd
00000380: f221 cf3d 0cc7 c83d 6db8 a4bd 5543 febd
00000390: 54be 8e3d e50a cabc f4dd c2bd 761f 83bd
000003a0: feeb 023b 9ea0 5a3b aa66 5bbd 347f cd3d
000003b0: 110b cc3d b454 bb3d 1644 12bd 0b2f 81bd
000003c0: bc59 1fbc 669d e33d 2627 d4bd 0a6e 82bd
000003d0: 25c1 d2bd f243 8d3d d000 cf3d 4c96 c3bd
000003e0: 6e64 353d 96cd e43d daac a23d 5687 b6bd
000003f0: 4db9 043d d4c3 b43d 900e cfbd c957 913d

lstm.bias_hh_l0 f4 [256]
-0.105501845 -0.0703886 0.055334814 0.11737101 -0.035893902 0.117197834 -0.11784002 -0.06271036
0.08952406 -0.009909876 -0.08684524 0.042853188 -0.0023692446 -0.063075885 -0.012918896 -0.013067078
-0.080162756 -0.014731034 0.09695029 -0.06232131 0.07926919 0.106770225 -0.032183826 0.014813431
-0.08918053 0.058783807 -0.10087812 0.12289937 -0.06602142 0.0815635 0.09981957 -0.06244828
-0.07862181 -0.09698274 -0.07985228 -0.018486952 0.0011824915 -0.0030119785 -0.03940456 -0.025428038
0.021862473 0.08661713 -0.116477504 0.090864904 0.049565732 0.02413276 0.046384655 0.09534165
0.071911566 0.0038745464 -0.114861056 0.11432886 0.07804221 -0.008964547 -0.043619633 0.100726195
0.06354031 0.074012615 0.064719476 -0.031138005 -0.042053845 0.025679424 0.054876324 0.10227819
0.060038343 -0.119811416 -0.046775825 0.024560088 0.11174916 -0.07277535 -0.054716595 0.11582553
-0.080706865 -0.016106611 0.051657062 -0.11114249 -0.0585009 -0.06411528 -0.021121627 -0.068171225
0.11618191 0.021590319 0.020400334 0.03233112 -0.08829222 0.09893241 -0.055576622 0.06806016
-0.108828716 -0.049508087 0.10009731 0.092892185 0.024478955 -0.07673104 -0.116486065 -0.04513203
-0.016210433 -0.07458672 0.08072372 -0.0011642001 0.06455722 0.014805552 0.120655656 -0.10804112
-0.009650643 -0.1139957 0.020903355 -0.038984276 -0.07925104 0.09969658 -0.047686327 0.031779163
0.014965298 0.057240847 -0.0050936923 0.017470742 0.118505664 -0.02734624 0.09031073 -0.07320972
0.06555015 0.07221961 -0.013415494 0.11691417 0.108646564 -0.12199805 0.033099197 0.06042156
-0.123524964 0.11560397 -0.042187516 0.042669766 -0.04504659 -0.072172284 -0.10382769 0.12001664
0.015391311 -0.022121701 -0.04555811 -0.079974376 0.0062540877 -0.058684833 0.073755234 -0.057286747
-0.10133957 0.11614177 0.023975477 -0.114948474 0.019982008 -0.045345142 -0.02059311 -0.05266425
-0.09684423 -0.1235532 0.040496524 0.07421647 0.11340623 0.12400913 -0.015992574 -0.058747523
-0.058012526 -0.030019505 -0.030651448 -0.08899311 -0.050555523 0.034175478 0.078728296 0.09804778
0.096123695 0.06320656 -0.01590103 0.07172416 0.10204758 0.037282884 0.07856089 -0.073926985
-0.11924833 -0.08694963 0.12402782 0.09831511 -0.08776631 -0.020869642 0.037994757 0.05663633
0.09151007 -0.07874659 0.10743262 0.019037284 0.02802295 -0.12104423 0.068484336 -0.12062904
-0.119778104 -0.037270833 -0.058869246 -0.0639083 0.016659647 -0.05189567 0.07017121 0.058843855
0.031729173 -0.10397594 0.007997007 -0.120930955 -0.020377845 0.04579691 -0.015521262 -0.016314061
0.008614815 0.089849226 0.078203544 0.05443639 0.10427562 0.0035561605 -0.091128215 0.057720907
0.02613854 0.094903365 -0.085627794 0.08213353 0.069852985 -0.11187892 0.057175264 -0.12090637
-0.006336199 -0.029196313 -0.05398472 0.0580827 0.123319745 -0.047956124 -0.12275103 -0.093929425
0.04290734 0.05496998 -0.019254578 0.12324782 -0.028611038 -0.031891104 0.10389272 -0.07239189
0.093379416 0.012064124 -0.017397031 0.029262194 0.106963 -0.010286455 -0.11336726 -0.0722518
-0.0031588292 0.11766891 -0.008962978 -0.022894055 -0.09697389 -0.055847436 -0.05482551 0.012682958
00000000: 5a11 d8bd e627 90bd c2a6 623d 3660 f03d
00000010: 7c05 13bd 6b05 f03d 1c56 f1bd 4a6e 80bd
00000020: 6458 b73d 085d 22bc ebdb b1bd d386 2f3d
00000030: 5445 1bbb ee2d 81bd c7a9 53bc 4c17 56bc
00000040: 5f2c a4bd 6f5a 71bc e08d c63d a144 7fbd
00000050: e357 a23d 59aa da3d 30d3 03bd 08b4 723c
00000060: 48a4 b6bd 4ac7 703d 3099 cebd aab2 fb3d
00000070: 3d36 87bd c40a a73d 346e cc3d c5c9 7fbd
00000080: 7904 a1bd e39e c6bd 9889 a3bd f371 97bc
00000090: d5fd 9a3a 9d64 45bb ad66 21bd 764e d0bc
000000a0: ee18 b33c 5264 b13d c28b eebd 6117 ba3d
000000b0: 7005 4b3d 11b2 c53c d6fd 3d3d 7c42 c33d
000000c0: 5f46 933d 1aec 7d3b 463c ebbd 4025 ea3d
000000d0: 98d4 9f3d 09e0 12bc 80aa 32bd 8949 ce3d
000000e0: 6c21 823d ed93 973d a58b 843d 2115 ffbc
000000f0: a740 2cbd a85d d23c ffc5 603d 3a77 d13d
00000100: c4ea 753d b05f f5bd 0298 3fbd 3d32 c93c
00000110: bedc e43d 3e0b 95bd 821e 60bd ef35 ed3d
00000120: a449 a5bd 03f2 83bc 5b96 533d ac9e e3bd
00000130: a49e 6fbd df4e 83bd 4307 adbc 5b9d 8bbd
00000140: c8f0 ed3d 2ede b03c 9a1e a73c a36d 043d
00000150: 8dd2 b4bd 139d ca3d 50a4 63bd 2063 8b3d
00000160: 97e1 debd fec8 4abd d2ff cc3d 423e be3d
00000170: 1788 c83c 2a25 9dbd 3f90 eebd 5ddc 38bd
00000180: becb 84bc ecc0 98bd 7a52 a53d 1398 98ba
00000190: 9336 843d fc92 723c 501a f73d aa44 ddbd
000001a0: bb1d 1ebc 9476 e9bd 833d ab3c faad 1fbd
000001b0: 5f4e a2bd b82d cc3d bd52 43bd de2a 023d
000001c0: 0231 753c 6175 6a3d fde8 a6bb cd1e 8f3c
000001d0: 19b3 f23d 3905 e0bc d5f4 b83d faee 95bd
000001e0: 283f 863d e0e7 933d a9cc 5bbc b270 ef3d
000001f0: 1782 de3d 1dda f9bd 0693 073d 997c 773d
00000200: a8fa fcbd c6c1 ec3d d1cc 2cbd 7ec6 2e3d
00000210: c682 38bd 10cf 93bd 9da3 d4bd 49cb f53d
00000220: d62b 7c3c 9238 b5bc 249b 3abd 9bc9 a3bd
00000230: 17ef cc3b 825f 70bd fc0c 973d 82a5 6abd
00000240: 1f8b cfbd bcdb ed3d 3868 c43c 1b6a ebbd
00000250: 4fb1 a33c d4bb 39bd e2b2 a8bc 78b6 57bd
00000260: 4556 c6bd 7609 fdbd afdf 253d cefe 973d
00000270: 8741 e83d 80f8 fd3d dc02 83bc 3ea1 70bd
00000280: 8b9e 6dbd 77eb f5bc bf18 fbbc 0542 b6bd
00000290: 4f13 4fbd 96fb 0b3d 4d3c a13d 46cd c83d
000002a0: 80dc c43d 7172 813d e042 82bc 1ee4 923d
000002b0: 52fe d03d f0b5 183d 88e4 a03d 0867 97bd
000002c0: 7838 f4bd a612 b2bd 4c02 fe3d 6f59 c93d
000002d0: d3be b3bd d0f6 aabc 64a0 1b3d 7ffb 673d
000002e0: a269 bb3d e445 a1bd a205 dc3d 14f4 9b3c
000002f0: 6390 e53c 0ae6 f7bd 8441 8c3d 5c0c f7bd
00000300: 394e f5bd 4da9 18bd e120 71bd 5be2 82bd
00000310: d079 883c 8e90 54bd ecb5 8f3d 4106 713d
00000320: 73f6 013d 56f1 d4bd e105 033c a6aa f7bd
00000330: 70ef a6bc 8a95 3b3d e44c 7ebc 11a5 85bc
00000340: 2725 0d3c df02 b83d 2e29 a03d b1f8 5e3d
00000350: 758e d53d 790e 693b 6ea1 babd c26c 6c3d
00000360: 7e20 d63c b25c c23d a05d afbd a035 a83d
00000370: 150f 8f3d c620 e5bd 9c30 6a3d c29d f7bd
00000380: e49f cfbb 1b2d efbc 151f 5dbd 20e8 6d3d
00000390: 108f fc3d a46d 44bd e464 fbbd 125e c0bd
000003a0: 9bbf 2f3d 3428 613d c7bb 9dbc 5a69 fc3d
000003b0: b261 eabc 3fa0 02bd b5c5 d43d 3342 94bd
000003c0: b53d bf3d 9ba8 453c 3884 8ebc 45b7 ef3c
000003d0: 6b0f db3d 8588 28bc 182d e8bd c0f8 93bd
000003e0: 5c04 4fbb 66fc f03d 74d9 12bc 508c bbbc
000003f0: 3f9a c6bd 48c0 64bd b790 60bd 2ecc 4f3c

lstm.weight_ih_l0_reverse f4 [256, 10]
-0.032436837 -0.11332728 -0.024991572 0.11209065 0.030258134 0.119507626 -0.022125736 -0.081873015
0.06938334 0.03223288 -0.07194594 -0.038790744 -0.11612646 0.066886604 0.088856936 0.10203409
0.040483713 0.0667837 -0.04538858 0.0044232905 -0.009482167 0.09803291 0.12391269 0.11046298
-0.07617259 0.104939535 0.014393864 -0.041788086 0.122620985 -0.083841756 -0.08504723 -0.009030745
0.06148912 -0.09774138 0.059655473 -0.042755242 -0.04329376 -0.016137417 0.08301686 0.11175907
-0.082226776 -0.12252182 -0.10556278 -0.1215819 -0.01688424 -0.09593859 0.10546073 -0.08652499
0.023845851 0.02711904 -0.077376455 0.07462616 0.12093803 0.01820916 -0.023889797 0.108650275
-0.10488466 -0.0030897816 -0.088566765 -0.005372852 0.03640646 0.09087825 0.08803533 -0.118512854
0.11635525 -0.11826596 0.051776987 0.073886335 0.012092784 0.123705834 0.016551772 -0.09883543
-0.0435033 0.12298243 0.001031642 0.08733426 0.04755066 -0.010524519 0.058963284 0.07647084
-0.115906134 0.05054238 -0.12148546 -0.02018641 -0.060433168 -0.08667357 -0.07326623 -0.0069364
0.09050678 0.015047371 0.05663638 0.08838551 -0.074298784 -0.11753796 0.10088692 -0.048865408
0.04198425 -0.071754664 -0.014808625 -0.061756656 -0.029000793 0.054187343 0.02258788 -0.0061867386
-0.020358635 -0.079732984 -0.013708338 -0.03950718 0.11027169 -0.009545386 -0.03426603 0.05368033
0.03349264 0.06781179 0.03253432 -0.04281068 0.0016740969 0.031687543 0.11167425 0.09661795
-0.0648546 0.08809061 0.104461 -0.09404749 0.0003764295 0.022527572 0.04414806 0.10793043
0.06731029 -0.11215831 0.04805252 0.04941595 -0.08156927 0.0099449605 -0.03813927 0.058137234
-0.06389509 0.049093258 -0.0859288 0.054909512 0.10882352 0.09098117 -0.008743823 -0.052477315
-0.08454524 0.09315568 0.019655213 0.00070753804 -0.015237644 0.11137548 0.019210218 0.074740246
-0.038898245 0.108459875 0.096866384 -0.077833034 -0.09991409 0.05447275 -0.11348528 -0.1120825
-0.0886018 -0.08475857 0.0062048286 0.108862 -0.074659765 -0.09027772 -0.09091525 -0.020202514
-0.021702185 0.085423306 0.012455183 0.105353326 -0.025462463 0.05448012 -0.036123395 -0.014187596
0.0053507467 -0.07123566 -0.08303328 -0.1118978 -0.05795952 0.08303085 0.112772554 -0.0027077699
0.11028385 -0.09501101 -0.122103676 -0.084861115 -0.018671155 -0.10672335 0.057656884 0.085311115
0.08303009 -0.06439559 0.12387143 0.08808218 0.04197696 -0.005032479 -0.0065390915 0.06305815
-0.11578967 -0.096146576 -0.022431359 0.07430068 -0.08319587 -0.022325983 -0.07068869 -0.07746
0.037950277 0.00735949 -0.008792031 0.027274728 0.055924743 -0.11654565 0.0043566437 0.059879884
-0.08918771 0.06828864 -0.03030765 0.06818971 -0.08853309 0.05707587 -0.10794343 0.04987271
-0.0680067 -0.08792426 -0.080166526 0.03614433 -0.015386298 -0.120890155 0.11669564 -0.044321846
-0.03356704 0.039114 0.078130946 -0.088754706 0.043125715 0.07803852 -0.07213436 -0.100391164
0.07146234 -0.024962552 -0.07891689 -0.0667606 0.047890905 -0.0680393 0.12416667 -0.12351979
-0.008109 0.097065434 -0.08989587 -0.037290536 -0.006989196 -0.113540486 -0.048109755 0.122924104
00000000: 7ddc 04bd 2218 e8bd 20bb ccbc c88f e53d
00000010: e8df f73c 6ac0 f43d 0841 b5bc 0aad a7bd
00000020: da18 8e3d a006 043d 6558 93bd 0be3 1ebd
00000030: b6d3 edbd d8fb 883d a0fa b53d 40f7 d03d
00000040: 40d2 253d e4c5 883d 60e9 39bd 40f1 903b
00000050: 175b 1bbc 7ac5 c83d f0c5 fd3d 6a3a e23d
00000060: 6000 9cbd 8aea d63d 3ed4 6b3c fc29 2bbd
00000070: b620 fb3d 3ab5 abbd 3e2d aebd b1f5 13bc
00000080: 04dc 7b3d a22c c8bd 4c59 743d 1f20 2fbd
00000090: cc54 31bd 9e32 84bc be04 aa3d f0e1 e43d
000000a0: 8366 a8bd b8ec fabd 4c31 d8bd eeff f8bd
000000b0: d150 8abc 747b c4bd ccfb d73d 0434 b1bd
000000c0: 6058 c33c c028 de3c 8c77 9ebd 9ad5 983d
000000d0: 5cae f73d 602b 953c 89b4 c3bc 0984 de3d
000000e0: c5cd d6bd ef7d 4abb 7e62 b5bd c00e b0bb
000000f0: f11e 153d 601e ba3d de4b b43d deb6 f2bd
00000100: a94b ee3d 6c35 f2bd 1b14 543d b851 973d
00000110: d020 463c 7c59 fd3d 9597 873c 3b6a cabd
00000120: 8430 32bd 36de fb3d 2938 873a 4edc b23d
00000130: 7bc4 423d 086f 2cbc 7c83 713d be9c 9c3d
00000140: 3260 edbd 8705 4f3d 5ecd f8bd f85d a5bc
00000150: c588 77bd ea81 b1bd 9b0c 96bd be4a e3bb
00000160: 9e5b b93d 4089 763c 8cfb 673d 7603 b53d
00000170: f629 98bd beb7 f0bd cd9d ce3d 1827 48bd
00000180: adf7 2b3d 1cf4 92bd e09f 72bc 8cf4 7cbd
00000190: 1293 edbc 8cf3 5d3d 380a b93c 20ba cabb
000001a0: 27c7 a6bc 0c4b a3bd f098 60bc 48d2 21bd
000001b0: 20d6 e13d 4064 1cbc 895a 0cbd e8df 5b3d
000001c0: 942f 093d e8e0 8a3d b542 053d 405a 2fbd
000001d0: 5f6d db3a ccca 013d 78b5 e43d a2df c53d
000001e0: 7dd2 84bd da68 b43d a6ef d53d f89b c0bd
000001f0: 835b c539 be8b b83c 99d4 343d a10a dd3d
00000200: fad9 893d 42b3 e5bd b8d2 443d 6168 4a3d
00000210: ca0d a7bd 30f0 223c ec37 1cbd 4f21 6e3d
00000220: 6edb 82bd 0316 493d 70fb afbd cce8 603d
00000230: dede de3d 5654 ba3d 4042 0fbc 74f2 56bd
00000240: 0e26 adbd 68c8 be3d f803 a13c 137a 393a
00000250: 50a7 79bc d418 e43d bf5e 9d3c 6a11 993d
00000260: c453 1fbd 3620 de3d e261 c63d ed66 9fbd
00000270: c29f ccbd d11e 5f3d f86a e8bd 828b e5bd
00000280: dc74 b5bd e795 adbd e051 cb3b 0af3 de3d
00000290: 38e7 98bd 86e3 b8bd c631 babd be7f a5bc
000002a0: c8c8 b1bc 6af2 ae3d d310 4c3c 7cc3 d73d
000002b0: a896 d0bc 8c26 5f3d 20f6 13bd 1773 68bc
000002c0: 5155 af3b 00e4 91bd 5a0d aabd ac2a e5bd
000002d0: f666 6dbd 140c aa3d 4cf5 e63d d774 31bb
000002e0: 80dc e13d 2295 c2bd 7e11 fabd aacb adbd
000002f0: 40f4 98bc c691 dabd a029 6c3d 98b7 ae3d
00000300: ae0b aa3d d6e1 83bd 4eb0 fd3d 6e64 b43d
00000310: 08f0 2b3d 7ee7 a4bb e045 d6bb a224 813d
00000320: 2223 edbd 7fe8 c4bd f8c1 b7bc f42a 983d
00000330: 9962 aabd fbe4 b6bc 3bc5 90bd 59a3 9ebd
00000340: c071 1b3d e027 f13b 730c 10bc 406f df3c
00000350: 5811 653d 7caf eebd 2dc2 8e3b 9c44 753d
00000360: 0ca8 b6bd eada 8b3d c047 f8bc 0ca7 8b3d
00000370: d650 b5bd 63c8 693d 7211 ddbd 5447 4c3d
00000380: 1947 8bbd a211 b4bd 592e a4bd 140c 143d
00000390: d016 7cbc 4295 f7bd 20fe ee3d d38a 35bd
000003a0: 987d 09bd 0036 203d 1e03 a03d 07c5 b5bd
000003b0: 97a4 303d a9d2 9f3d 2ebb 93bd e299 cdbd
000003c0: d95a 923d 447e ccbc 2e9f a1bd c8b9 88bd
000003d0: 4129 443d 3058 8bbd 184b fe3d f2f7 fcbd
000003e0: 9cdb 04bc 3eca c63d 531b b8bd f6bd 18bd
000003f0: a005 e5bb ea87 e8bd bc0e 45bd a2bf fb3d

lstm.weight_hh_l0_reverse f4 [256, 64]
-0.11536643 0.049334556 0.04818821 0.11526863 -0.0015781053 0.069538906 -0.075772315 -0.058616802
0.0350042 -0.0756077 -0.07479763 0.044778153 0.058632284 0.052183446 0.045297775 0.05125636
0.08470857 -0.013332467 -0.12099548 0.05838634 -0.027493402 0.10385659 0.033430576 -0.113085255
-0.089480236 -0.08025549 -0.07547094 0.12495273 0.078482 0.020344272 -0.09779909 0.06793429
0.06920698 0.04700023 -0.10168439 -0.011613856 0.06986529 0.055456907 -0.008937997 0.04574676
0.074717715 -0.113774404 -0.04613702 -0.10440242 0.077902496 0.035173323 -0.0048161624 -0.05817452
0.050431296 -0.0075149657 -0.055486932 0.0030515809 -0.107593775 0.03665466 0.0166502 -0.06340973
-0.06866549 -0.07329981 0.02923443 0.09473659 -0.122394875 -0.017475996 -0.110474974 0.079682305
0.008748598 0.070624694 0.037474237 -0.09741053 0.06940518 0.11008094 0.080459446 -0.04877776
0.11409603 -0.045364663 0.021772346 0.014819117 0.05356352 -0.07122244 0.024143713 0.0912548
-0.06083992 0.0827972 -0.09538092 0.057294756 -0.124915525 0.021109253 -0.072540134 0.015468726
-0.08581056 -0.038408205 0.08956109 0.11485988 -0.04054551 -0.09697774 -0.052043796 -0.0029798136
0.04397486 0.11729123 0.089238584 0.0081370035 -0.074934274 -0.10966399 -0.10163298 0.10338579
-0.06070228 -0.015808105 0.1192368 0.014230787 0.06984098 0.04489883 0.043417335 -0.0476612
-0.05038677 0.09672269 -0.012883619 0.07581684 -0.067037 0.040332615 0.11104655 -0.023691386
-0.1222575 0.037753195 -0.10301812 -0.08276461 0.06687768 -0.09740573 0.10662779 -0.09614791
-0.092778936 0.083931744 -0.020133061 -0.08045332 0.09920956 0.037671134 0.04742819 0.07017951
0.00029037418 0.12131788 0.10427961 -0.04194303 0.093300074 -0.07395029 -0.10196246 0.03772828
0.083030835 0.024586812 0.08483456 -0.0878851 -0.05939254 0.03337498 -0.05359459 0.07440092
0.053144276 -0.017561411 0.09430729 -0.12013447 0.10915156 -0.044003695 -0.039199233 -0.016296685
0.0667896 -0.0010132391 0.062338695 -0.0077693956 0.051154062 -0.042997375 -0.091247305 0.026517421
-0.10757525 -0.018263295 0.12350853 0.11399226 -0.081320494 -0.057711065 0.042209268 -0.093551785
-0.06343347 0.007819433 0.11930448 -0.015489664 0.10149646 0.032630105 0.00039257624 -0.019839078
0.09953581 -0.029052436 0.0014410896 -0.005977328 -0.004404756 0.037766263 0.06438455 0.09815626
0.01647915 -0.046906933 0.027496696 -0.058383062 -0.0020621428 -0.0712852 -0.10412651 -0.11436282
0.1053416 -0.04300654 0.031343907 -0.06046565 0.064344615 -0.11662614 0.11552787 0.116311565
0.030221492 0.09347996 -0.01182541 0.088342205 0.057368606 -0.027139738 -0.10854107 -0.016462073
-0.07260293 -0.09799275 0.08597176 0.11914937 0.09030937 0.023905411 -0.041049466 -0.09393735
-0.12489459 0.09063816 0.027762845 -0.054473326 0.027070373 0.030713007 -0.061597764 -0.10033372
-0.056523263 -0.06220764 -0.11946805 0.08442502 0.07030356 0.05930862 -0.043196753 0.034931675
-0.007290885 0.073130354 0.10605571 0.09973784 0.11901678 -0.10559361 -0.07469626 0.06825611
-0.005283177 -0.06687915 0.050431907 0.088173926 -0.076698124 0.105471775 0.0391075 0.05075054
00000000: 3c45 ecbd 0813 4a3d 0061 453d f611 ec3d
00000010: 6dd8 ceba 6a6a 8e3d 842e 9bbd 2c18 70bd
00000020: 9060 0f3d 36d8 9abd 802f 99bd 4c69 373d
00000030: 6828 703d 4fbe 553d 298a 393d 30f2 513d
00000040: b07b ad3d 6b70 5abc 7acc f7bd 8426 6f3d
00000050: d839 e1bc c4b2 d43d 80ee 083d 3e99 e7bd
00000060: 6a41 b7bd fe5c a4bd 8290 9abd 38e7 ff3d
00000070: 2cbb a03d 08a9 a63c e44a c8bd 2221 8b3d
00000080: 64bc 8d3d 5083 403d e83f d0bd 0b48 3ebc
00000090: 8815 8f3d c826 633d ad70 12bc f460 3b3d
000000a0: 9a05 993d 8e02 e9bd 2cfa 3cbd f0d0 d5bd
000000b0: 588b 9f3d e711 103d e6d0 9dbb 6848 6ebd
000000c0: 0c91 4e3d 1a40 f6bb 4446 63bd 08fd 473b
000000d0: 205a dcbd 3223 163d 0066 883c f6dc 81bd
000000e0: 7ea0 8cbd 361e 96bd 0b7d ef3c 4205 c23d
000000f0: 2aaa fabd d229 8fbc b440 e2bd 7a30 a33d
00000100: 4856 0f3c aea3 903d 967e 193d 2c7f c7bd
00000110: 4e24 8e3d 1e72 e13d ecc7 a43d 30cb 47bd
00000120: 2eab e93d 4cd0 39bd eb5b b23c e2cb 723c
00000130: 6c65 5b3d 12dd 91bd 09c9 c53c cce3 ba3d
00000140: 4833 79bd 9491 a93d 1257 c3bd e8ad 6a3d
00000150: b6d3 ffbd 50ed ac3c ec8f 94bd 8a70 7d3c
00000160: 72bd afbd ec51 1dbd ce6b b73d a83b eb3d
00000170: 0c13 26bd 449c c6bd e02b 55bd fa48 43bb
00000180: fc1e 343d 6236 f03d b8c2 b63d 1151 053c
00000190: 2477 99bd 8497 e0bd f424 d0bd eebb d33d
000001a0: f4a2 78bd 0080 81bc 6c32 f43d 3f28 693c
000001b0: ca08 8f3d d6e7 373d 60d6 313d 6438 43bd
000001c0: 5c62 4ebd 8c16 c63d d115 53bc dc45 9b3d
000001d0: b24a 89bd d033 253d 606c e33d 7014 c2bc
000001e0: 2462 fabd 18a3 1a3d 2afb d2bd 7e80 a9bd
000001f0: 2af7 883d a87c c7bd ac5f da3d 32e9 c4bd
00000200: e202 bebd 68e4 ab3d 17ee a4bc b6c4 a4bd
00000210: 622e cb3d 0c4d 1a3d 1044 423d 46ba 8f3d
00000220: 5d3d 9839 8275 f83d 8c90 d53d 74cc 2bbd
00000230: 1c14 bf3d 4073 97bd b2d1 d0bd f888 1a3d
00000240: 120c aa3d 486a c93c bebd ad3d 1afd b3bd
00000250: 9845 73bd 34b4 083d 0086 5bbd 825f 983d
00000260: d0ad 593d f3dc 8fbc 2e24 c13d 1009 f6bd
00000270: da8a df3d 383d 34bd 608f 20bd a080 85bc
00000280: fcc8 883d aace 84ba dc56 7f3d 6a96 febb
00000290: ec86 513d 041e 30bd dedf babd 103b d93c
000002a0: 6a50 dcbd e89c 95bc 0af2 fc3d c674 e93d
000002b0: 5c8b a6bd 7062 6cbd a0e3 2c3d 1498 bfbd
000002c0: 68e9 81bd 141d 003c e855 f43d 5cc8 7dbc
000002d0: 60dd cf3d 25a7 053d b1d2 cd39 9085 a2bc
000002e0: 6ed9 cb3d 60ff edbc f1e2 bc3a 76dd c3bb
000002f0: c555 90bb ccb0 1a3d 0cdc 833d 2606 c93d
00000300: 48ff 863c 7c21 40bd c040 e13c 1423 6fbd
00000310: 0425 07bb fafd 91bd 4840 d5bd 0e37 eabd
00000320: 56bd d73d a027 30bd 7862 003d d4aa 77bd
00000330: 1cc7 833d b0d9 eebd e099 ec3d c234 ee3d
00000340: 1093 f73c 6c72 bf3d 5dbf 41bc c2ec b43d
00000350: 58fb 6a3d 2854 debc c84a debd 78db 86bc
00000360: d8b0 94bd 6cb0 c8bd f611 b03d 9604 f43d
00000370: 1ef4 b83d 48d5 c33c 7c23 28bd 3a62 c0bd
00000380: bcc8 ffbd 80a0 b93d e86e e33c 6c1f 5fbd
00000390: b0c2 dd3c d899 fb3c f04d 7cbd c47b cdbd
000003a0: f084 67bd 70cd 7ebd aaab f4bd 06e7 ac3d
000003b0: 50fb 8f3d 98ed 723d 14ef 30bd 8414 0f3d
000003c0: 60e8 eebb 5ec5 953d bc33 d93d 5a43 cc3d
000003d0: 12bf f33d 7641 d8bd 5afa 98bd dcc9 8b3d
000003e0: 801e adbb f0f7 88bd b091 4e3d 8894 b43d
000003f0: e813 9dbd 9601 d83d 302f 203d ccdf 4f3d

lstm.bias_ih_l0_reverse f4 [256]
-0.11800425 0.06305807 -0.0036438522 0.10621752 0.057666805 0.10765604 -0.0429802 -0.0931319
-0.029166747 0.109470226 -0.04543123 0.08375619 0.06311378 -0.016780904 -0.085775726 0.09060055
-0.061553545 -0.0860711 -0.003431324 -0.08386715 0.0016372496 -0.041024897 -0.024653386 -0.051775414
0.053947803 0.024796259 -0.06930046 0.10253352 0.10293417 0.06602419 -0.058486875 0.008832252
0.0592929 0.027012791 0.0747997 -0.061605208 -0.101035856 0.12224263 -0.033262163 0.04442112
-0.0137722725 -0.055316925 -0.030913288 0.083170444 -0.11416178 0.041023247 0.0018006456 0.09162508
0.036962926 -0.061347518 -0.05460695 0.08149905 -0.10898795 -0.06369997 0.09780937 -0.08825055
0.070984475 -0.085798495 0.02429915 0.118039735 0.036633126 0.043895803 -0.08798261 0.012074383
-0.00159293 0.0233694 -0.07228416 -0.06503946 0.029237824 0.0002498879 -0.043139093 0.059738234
0.08007086 0.015774952 -0.10054248 0.10466331 -0.10726772 -0.018323855 0.027790925 -0.0051812585
-0.069206536 0.021062477 0.1007243 -0.046563786 0.09607305 -0.06817856 -0.05485437 0.12209861
-0.07168651 0.11749428 -0.0940357 0.09162292 -0.10884099 -0.08181555 0.03110585 -0.06646666
-0.11438106 0.07311053 -0.049704373 0.123731524 -0.11296826 -0.043652106 -0.05030113 -0.038550347
0.10488285 -0.043594155 -0.0859794 0.10860194 0.12311519 0.024022678 -0.09028405 0.112497166
-0.11507402 0.07566929 0.03878521 0.116425656 0.10104893 -0.026725303 0.09223052 0.0037123554
0.099332444 0.1020611 -0.0707139 -0.07765235 -0.08486426 0.11704002 -0.06668499 0.09372382
-0.04818876 0.03489339 0.040882044 0.017323779 0.09512584 -0.050104626 -0.0372488 0.03858106
-0.07853174 -0.000658938 -0.08173423 -0.01118944 -0.09532652 0.06162854 -0.030867971 0.11909753
-0.058208585 -0.08268979 -0.10532395 0.048245158 0.042686954 0.1186867 0.10014359 -0.097578466
0.008254913 -0.06937398 -0.03368054 -0.02233383 -0.02249678 -0.030904548 -0.022749782 -0.103371836
-0.08378089 0.046607647 0.022076895 0.11738063 0.085196376 -0.047656793 0.10672288 -0.1101884
-0.032085486 0.010011408 -0.07704159 0.06880717 -0.04516966 0.11136904 0.08264832 0.084197655
-0.03870572 0.067698285 -0.069931634 -0.055469096 -0.038306877 0.059180636 -0.020374903 0.0719379
-0.07867763 0.069842115 0.041657496 -0.023020731 0.03959984 -0.12394935 0.105956376 -0.017290954
0.11303703 0.09122963 0.07783074 -0.043916114 0.0026372676 -0.025936246 -0.104495674 0.07281526
-0.012975594 0.07187362 0.03604398 0.038707815 0.042480737 -0.048925087 -0.07653218 -0.03337156
0.043603454 0.032704897 -0.03522238 -0.11512472 0.043350846 0.013580114 -0.040906932 -0.058859296
-0.093580864 0.12186156 0.026364949 0.07602533 -0.016301556 -0.03258839 -0.055348422 0.11080314
0.0017369359 -0.030137649 0.025228396 -0.09438449 0.0063085975 2.4749028e-05 -0.012756846 -0.1057927
-0.087910235 -0.11289357 0.10561263 -0.10623442 0.029846834 0.10010713 -0.027539145 -0.07475823
-0.05916007 0.054796066 0.03782528 -0.05230604 -0.0046182526 -0.12077368 -0.03217472 -0.0040088743
-0.08960528 -0.052892916 0.050111134 -0.12146021 0.06781222 -0.045094367 -0.0476094 0.11919075
00000000: 36ac f1bd 9724 813d b2cd 6ebb 9288 d93d
00000010: 0734 6c3d c57a dc3d 020c 30bd f0bb bebd
00000020: 1aef eebc ed31 e03d 1916 3abd 5e88 ab3d
00000030: cc41 813d 1b78 89bc 2fab afbd c88c b93d
00000040: 921f 7cbd 0b46 b0bd 10e0 60bb 8ac2 abbd
00000050: fb98 d63a b909 28bd e6f5 c9bc 7512 54bd
00000060: 5ff8 5c3d 8621 cb3c 66ed 8dbd 18fd d13d
00000070: 26cf d23d b137 873d ef8f 6fbd 26b5 103c
00000080: 1ddd 723d ee49 dd3c 9630 993d be55 7cbd
00000090: e3eb cebd 585a fa3d e83d 08bd ecf2 353d
000000a0: 19a5 61bc 0094 62bd dd3d fdbc 4455 aa3d
000000b0: a7cd e9bd fe07 283d a403 ec3a eea5 bb3d
000000c0: 7066 173d 8947 7bbd 8aab 5fbd f9e8 a63d
000000d0: 1335 dfbd 2175 82bd 4750 c83d b4bc b4bd
000000e0: 4f60 913d 1fb7 afbd 030f c73c d1be f13d
000000f0: 9e0c 163d 16cc 333d 3a30 b4bd a2d3 453c
00000100: ddc9 d0ba 2f71 bf3c b809 94bd 6933 85bd
00000110: 2984 ef3c 6303 8339 9eb2 30bd 14b0 743d
00000120: 31fc a33d 793a 813c 37e9 cdbd b859 d63d
00000130: 2eaf dbbd e91b 96bc cba9 e33c 8cc7 a9bb
00000140: 28bc 8dbd 378b ac3c 8b48 ce3d abb9 3ebd
00000150: f2c1 c43d 33a1 8bbd faae 60bd d60e fa3d
00000160: 61d0 92bd d7a0 f03d ca95 c0bd cca4 bb3d
00000170: 06e8 debd e98e a7bd b2d1 fe3c ac1f 88bd
00000180: 9e40 eabd f9ba 953d d096 4bbd f466 fd3d
00000190: e75b e7bd 8dcc 32bd 8f08 4ebd f8e6 1dbd
000001a0: d2cc d63d c98f 32bd f815 b0bd b26a de3d
000001b0: d123 fc3d 35cb c43c d8e6 b8bd ea64 e63d
000001c0: eeab ebbd 80f8 9a3d 3edd 1e3d 9370 ee3d
000001d0: bef2 ce3d 06ef dabc 5be3 bc3d fd4a 733b
000001e0: cf6e cb3d 6905 d13d 73d2 90bd 3208 9fbd
000001f0: 50cd adbd aeb2 ef3d 2492 88bd 46f2 bf3d
00000200: 9461 45bd 5fec 0e3d ee73 273d 99ea 8d3c
00000210: 56d1 c23d 823a 4dbd 3392 18bd 2c07 1e3d
00000220: 40d5 a0bd 95bc 2cba 4764 a7bd ea53 37bc
00000230: 8d3a c3bd 356e 7c3d d4de fcbc 68e9 f33d
00000240: 206c 6ebd 4459 a9bd 15b4 d7bd b79c 453d
00000250: 84d8 2e3d 0312 f33d 1518 cd3d 38d7 c7bd
00000260: 9d3f 073c f213 8ebd 9bf4 09bd 70f5 b6bc
00000270: 2b4b b8bc 892b fdbc c05d babc 9db4 d3bd
00000280: 5195 abbd a9e7 3e3d 9bda b43c 4165 f03d
00000290: 707b ae3d c533 43bd 8691 da3d 75aa e1bd
000002a0: 126c 03bd e306 243c fbc7 9dbd c6ea 8c3d
000002b0: d203 39bd 7415 e43d 8643 a93d d26f ac3d
000002c0: e489 1ebd 66a5 8a3d 5138 8fbd 9033 63bd
000002d0: ace7 1cbd 6567 723d 45e9 a6bc 2d54 933d
000002e0: bd21 a1bd 6209 8f3d 0da1 2a3d f995 bcbc
000002f0: 7133 223d 28d9 fdbd a8ff d83d c2a5 8dbc
00000300: f57f e73d 9ad6 ba3d b965 9f3d 62e1 33bd
00000310: 02d6 2c3b 4078 d4bc d401 d6bd 2b20 953d
00000320: 9697 54bc 7a32 933d daa2 133d 168c 1e3d
00000330: 4800 2e3d ac65 48bd e7bc 9cbd 9eb0 08bd
00000340: 8999 323d 92f5 053d 5845 10bd 82c6 ebbd
00000350: a890 313d 207f 5e3c 078e 27bd 7216 71bd
00000360: 53a7 bfbd 8e92 f93d 4efb d73c 2bb3 9b3d
00000370: d78a 85bc 677b 05bd 07b5 62bd c2ec e23d
00000380: e6a9 e33a 3be3 f6bc c8ab ce3c a84c c1bd
00000390: 5ab8 ce3b 229c cf37 1702 51bc d8a9 d8bd
000003a0: 480a b4bd be34 e7bd 6f4b d83d 6e91 d9bd
000003b0: 5981 f43c f804 cd3d c699 e1bc d81a 99bd
000003c0: d451 72bd d771 603d aeee 1a3d dc3e 56bd
000003d0: b654 97bb 3158 f7bd a4c9 03bd e05c 83bb
000003e0: f982 b7bd 3ea6 58bd 5541 4d3d 21c0 f8bd
000003f0: 22e1 8a3d dfb4 38bd 1302 43bd 481a f43d
